checkpoint_critic.pth (torch_old, 174717 bytes, 9 tensors)

bn.weight f4 [256]
000000 09 f2 ca 3e c8 55 8c 3e 80 3e 63 3e 83 fe de 3e
       0.39637783 0.27409196 0.2219181 0.43553552
000010 32 78 d2 3e 6a 16 d0 3e 3e 10 a8 3e 13 14 c9 3e
       0.41107327 0.406421 0.32824892 0.39273128
000020 86 aa c3 3e a7 ed a0 3e 25 16 de 3e ea 5d 51 3f
       0.38216037 0.31431314 0.4337627 0.81783926
000030 63 45 6c 3b 01 7d 3e 3e fd 4a 0d 3f 0c d7 ab 3e
       0.00360521 0.18602373 0.5519255 0.33562505
000040 c7 16 8a 3e 13 34 1b 3f df 4f 81 3e 3c d8 2e 3f
       0.26970503 0.60626334 0.2525625 0.682987
000050 c5 6b 1f 3f b3 4c 2d 3f ac 80 d0 3e 90 a5 07 3f
       0.6227382 0.6769516 0.4072317 0.52987003
000060 f5 8e 8b 3e f7 c8 91 3e b5 df 1d 3f e8 88 49 ba
       0.27257505 0.28473637 0.61669475 -0.0007687942
000070 2e ed 89 3e 9e b4 6c 3e 57 3c c3 3e 4b cf 16 3f
       0.26938766 0.23115775 0.38131973 0.58910054
000080 b6 3f 1e 3e 53 99 54 3e 5b e5 96 3e f5 c0 84 bc
       0.15453991 0.20761614 0.2947186 -0.01620529
000090 18 3c a1 3e b5 a6 0b 3f e7 7d a6 3e 44 a6 d7 3e
       0.3149116 0.5455125 0.3251793 0.42119038
0000a0 9e 5d b9 3e 86 ea 8f 3e 09 26 a2 3e 66 40 bf 3e
       0.36204237 0.28108615 0.31669644 0.3735382
0000b0 c9 7b 88 3e a1 ea ac 3e c2 30 da 3e 74 da c8 3e
       0.2665694 0.33772758 0.42615324 0.39229167
0000c0 3e 13 8c 3e 52 27 46 3f 5f 07 62 3e c5 52 da 3e
       0.2735843 0.7740375 0.22073124 0.42641273
0000d0 4b 61 94 3e f8 02 be 3e 5a b3 1d 3f 86 03 89 3e
       0.2898048 0.3711164 0.61601794 0.267605
0000e0 c7 7f 15 3f df 3c 8c 3e 1e 24 a3 3e 91 04 64 3e
       0.583981 0.2739019 0.31863493 0.22267367
0000f0 39 55 48 3e af 3f 14 3f 9b 79 d2 3c 82 cb 03 3f
       0.1956376 0.57909673 0.025692752 0.51482403
000100 f6 97 3f 3f 55 4b 97 3e ea 85 96 3e 4a 53 ff 3e
       0.7484125 0.2954966 0.29399043 0.49868232
000110 6f 07 d5 3e 3b 81 ff 3e f2 54 49 3e e9 50 4b 3e
       0.41607234 0.49903283 0.1966131 0.19855084
000120 c3 12 23 3f af f3 a4 3e 1b f7 d5 3e 87 f5 ad 3e
       0.63700503 0.32217166 0.4179009 0.33976385
000130 fd 83 83 3e ba 18 b8 3e c4 f7 dd 3e d3 7b ab 3e
       0.25686637 0.35956365 0.43353093 0.33492908
000140 ae ab ff bb 3a 80 d9 3e 68 06 38 3f 9f 18 a8 3a
       -0.0078024482 0.42480642 0.71884775 0.001282472
000150 f9 54 22 3f 89 e5 af 3e d0 fe 75 3e 3b 03 84 3e
       0.6341091 0.3435481 0.24022985 0.25783715
000160 4e 4e e7 3e d5 65 95 3e 5f 2d b8 3e d0 f3 08 3f
       0.4517693 0.29179254 0.35972115 0.5349703
000170 9f 3c 89 3e 6f 3e d7 3e 55 53 86 ba dd 73 4c 3e
       0.26804063 0.4203982 -0.0010248224 0.19966073
000180 92 31 c0 3e bb 7c b9 3e e9 3f 82 3e 86 8d 78 3c
       0.3753782 0.36227974 0.25439385 0.015170461
000190 46 3a bc 3e 12 b5 b2 3e 16 e8 67 3e 6a d7 35 3f
       0.3676321 0.3490377 0.22647128 0.7103182
0001a0 0b 23 a8 3e 95 07 93 3e ba c3 7d 3c cd e8 a0 3e
       0.32839236 0.28716722 0.015488559 0.31427613
0001b0 c1 3a b2 3e 93 d8 cd 3e b0 7d f9 3e 25 f9 e7 3e
       0.3481045 0.40204296 0.48728704 0.4530727
0001c0 41 4e 78 3e 4a d1 ce 3e 91 7e 98 3e a7 77 7d 3c
       0.24248601 0.4039405 0.29784063 0.015470422
0001d0 3f 7d b3 3e 9d cd fe 3e 3d ae f6 3e 87 96 35 3f
       0.35056493 0.49766245 0.48179808 0.7093281
0001e0 9d 68 9a 3e d0 cb 95 3e b1 c1 86 3e e7 b8 0b 3f
       0.3015794 0.2925706 0.2631965 0.54579014
0001f0 9c 17 e4 39 8e 4a 8d 3e c0 68 c6 3e b4 e3 80 3c
       0.0004350514 0.27595943 0.38751793 0.015733577
000200 0f 81 b2 3e 94 70 68 3c 99 72 58 3e 34 91 e9 3e
       0.3486409 0.014186997 0.21137466 0.45618594
000210 a1 f2 95 3e f2 ae 11 3f db cb 4e 3f 91 bd 93 3e
       0.29286674 0.5690757 0.8077981 0.28855565
000220 ed b5 7d 3e 81 1b 35 3e a4 6f d9 3e 32 27 06 3f
       0.2477643 0.17686273 0.42467988 0.5240356
000230 0d c7 d0 3e b6 aa d5 3e 87 4e bb 3e 28 4f 0e 3e
       0.40776864 0.41731805 0.3658335 0.13897383
000240 5c 6a f7 ba 56 ec ba 3e 75 9c 57 3f 9d 2b 71 3e
       -0.0018876302 0.36508435 0.8422311 0.23551793
000250 2c 0e a9 3e 13 29 aa 3e 84 5f 14 bc b9 ec 0c 3f
       0.33018625 0.33234462 -0.009055976 0.5504871
000260 af 52 a6 3e 02 64 cc 3e 80 3b 15 3f 66 96 03 3b
       0.32484958 0.3992005 0.58293915 0.0020078658
000270 09 26 f4 3e a5 59 3d 3f a9 25 82 3e e4 66 ec 3e
       0.4768527 0.7396491 0.25419357 0.4617225
000280 2e c1 5f 3e 9e 23 99 3e 56 2a 29 3c 12 06 3a 3c
       0.21851036 0.29909986 0.010325035 0.011353986
000290 5c 2d 03 3f db 5c b8 3e ff 41 c1 3e 7b cf cc 3e
       0.5124109 0.36008343 0.37745664 0.40002045
0002a0 ca a3 5d 3c 78 35 81 3e 57 0a ea 3e 27 25 19 3f
       0.01352782 0.25236106 0.45711014 0.59822315
0002b0 32 35 24 3f 72 2b ef 3e bc 3d d6 3b 77 19 c7 3e
       0.6414367 0.46712834 0.006538121 0.38886616
0002c0 53 c8 d0 3e 1a 3b 97 3e 16 ae e5 3e 8e 09 93 3c
       0.40777835 0.29537278 0.4485938 0.017948892
0002d0 d5 ee a0 3e 09 9d f5 3e d2 cd d0 3e f5 1f b4 3e
       0.31432214 0.4797137 0.40782028 0.3518063
0002e0 14 53 85 3e 93 15 09 3f ae 24 30 3f 09 ca 75 3e
       0.26039946 0.53548545 0.6880597 0.24002852
0002f0 0a d6 57 bb f7 79 b8 3e c6 11 dc 3e 72 2e a1 3e
       -0.0032933974 0.36030552 0.4298231 0.31480747
000300 90 0f 82 3e 09 d6 8c 3e 9b 96 85 3e 09 7a 31 3e
       0.25402498 0.27507046 0.26091465 0.17331709
000310 55 c0 86 3e 4c ea 8f 3e a8 4d 02 3f 8b e6 96 3e
       0.26318613 0.28108442 0.50899744 0.29472765
000320 d1 13 af 3e 65 99 08 3f 5e aa e6 3e eb 60 52 3e
       0.34194806 0.5335906 0.45051855 0.20544784
000330 b4 ea d1 3e b0 16 d3 3e c6 0f ce 3e 7b a9 33 3f
       0.40999377 0.41228247 0.4024641 0.7018048
000340 36 15 25 3f 65 e7 d2 3e 61 90 cd 3e b2 31 50 3e
       0.6448549 0.41192165 0.40149215 0.20331457
000350 57 92 9a 3e 3f c4 92 3e c4 72 58 3e bd a7 69 3e
       0.30189773 0.2866535 0.2113753 0.22817893
000360 3b 80 8e 3b 3b ea 48 3e fc e8 27 3f d3 42 6c 3e
       0.0043487824 0.19620602 0.6558988 0.23072366
000370 7e 61 9d 3e 17 5f b4 3e c4 a3 8c 3f 1a d6 5a 3f
       0.30738443 0.35228798 1.0987477 0.85482943
000380 53 27 89 3c 33 eb 82 3e e0 99 51 3e fe 63 8b 3e
       0.016742384 0.25570068 0.20468855 0.27224725
000390 7f e3 b1 3e 7e ec 26 3f f0 2c bf 3e 71 2c 1f 3f
       0.34743878 0.6520461 0.37338972 0.6217719
0003a0 a5 6b 89 3e 4d d3 bc 3e 12 f8 e9 3e 36 9a 67 3e
       0.2683994 0.3687996 0.45697075 0.2261742
0003b0 6f eb cc 3e 39 ba 8d 3e 8e f3 a7 3e 46 56 f1 3e
       0.40023372 0.2768114 0.32803005 0.47136134
0003c0 e4 6a ca 3e 04 7b ea 3e dc dc 87 3e ca b3 23 3f
       0.39534676 0.45796978 0.2653569 0.6394621
0003d0 ea fe 4d 3f 15 38 49 3b 9b 94 b9 3e a7 b3 d4 3e
       0.80467093 0.0030703594 0.3624619 0.41543314
0003e0 22 bc b2 3e e7 18 2e 3e 30 0e 53 3e 4d 9b e2 3e
       0.3490916 0.17001687 0.20610881 0.4425911
0003f0 ce cf e0 3e db a0 d7 3e 21 78 c6 3e 61 44 36 3e
       0.43908542 0.4211491 0.38763526 0.17799522

bn.bias f4 [256]
000000 8a a7 06 bf e0 27 4f bf eb 6e f9 be df c2 8a be
       -0.52599394 -0.8092022 -0.48717436 -0.271018
000010 d2 fb 0c bf d8 b8 16 bf 60 4b ac be 91 16 b6 be
       -0.5507175 -0.588758 -0.33651257 -0.35564092
000020 7b 41 07 bf 32 8c 42 be 03 6d 0b bf 2b 45 84 be
       -0.5283429 -0.18998793 -0.54463214 -0.2583402
000030 10 5a a6 bc e8 21 14 bf 08 22 0c bf f4 3a 11 bf
       -0.020306617 -0.57864237 -0.5473943 -0.5673058
000040 2f 6d 40 be 64 96 8c bd 74 4a d9 be 97 92 0b bf
       -0.1879165 -0.06864622 -0.42439616 -0.54520553
000050 64 87 0b bf 48 e9 cc be 87 4f d7 be 64 1b f0 be
       -0.54503465 -0.4002173 -0.42052862 -0.46895897
000060 0a 72 27 be 93 67 b5 be 84 75 ac be 8f 26 32 bc
       -0.16352096 -0.35430583 -0.33683407 -0.010873451
000070 10 b1 fb be 46 3b 20 bf 4c 52 fc be bd 1c 1f bf
       -0.49158525 -0.62590444 -0.49281538 -0.62153226
000080 de 97 02 be c9 c0 ca be 52 24 92 be 45 88 00 be
       -0.12753245 -0.39600208 -0.28543335 -0.12551983
000090 96 c5 2a be ee b5 c9 3d 01 5c 06 bf c8 35 13 bf
       -0.16676936 0.098491535 -0.52484137 -0.5750394
0000a0 96 c5 e2 be 4d b7 12 bf 7d 68 f6 be 7a d2 c0 be
       -0.4429137 -0.57310945 -0.48126593 -0.3766058
0000b0 27 2d 99 be 94 27 04 bf 18 42 15 bf 67 b9 3f bf
       -0.2991726 -0.5162289 -0.58303976 -0.74892277
0000c0 39 bf fe be 9c 1b 84 be 1c ce 2f 3e 88 f5 1f bf
       -0.49755266 -0.25802314 0.17168468 -0.62484026
0000d0 8a 47 d5 be fe 8f 69 be a5 07 ba be 59 5b f1 be
       -0.41656142 -0.22808835 -0.36333957 -0.47140005
0000e0 94 0f e4 be d3 22 d3 bd dc 0d fc be 83 1e 35 bf
       -0.44543135 -0.103093766 -0.49229324 -0.7074968
0000f0 e3 49 1c be bf 84 10 bf 7f e6 69 be 7f 2f cb be
       -0.1526256 -0.56452554 -0.22841834 -0.39684674
000100 80 71 cb be f9 4d ae be 98 b8 2e be 9c 1a 55 bd
       -0.3973503 -0.34043863 -0.17062604 -0.05202733
000110 23 09 16 bf 10 68 32 bf 98 f1 34 be 1b 50 8c bd
       -0.5860769 -0.69690037 -0.17670286 -0.068512164
000120 e7 6e 3f bf 5f 50 30 be 3e 57 2f bf ae a3 79 be
       -0.747786 -0.17218159 -0.68492496 -0.24378845
000130 9b f5 05 bf 9b 01 3d be da 9b 11 bf 94 96 63 be
       -0.5232789 -0.18457644 -0.56878436 -0.2222541
000140 d9 21 71 bd 3e 1e 39 be 58 b9 cc be 40 02 1d bc
       -0.05887017 -0.18077943 -0.39985156 -0.009583056
000150 09 0a 3e bf b6 f8 cc be de de 6f be cf d3 df bd
       -0.7423406 -0.400335 -0.23424861 -0.10929071
000160 ae d4 b1 be 88 3e f2 be e4 ae f9 be 5d 18 ad bd
       -0.34732574 -0.47313333 -0.48766243 -0.084519126
000170 23 4f 8e be c8 08 df be c9 fe ce bb dc 69 13 be
       -0.27794752 -0.43561387 -0.006316994 -0.14395851
000180 bb 57 24 bf ee 9c 26 be ae 65 d7 be db 81 16 be
       -0.64196366 -0.16270801 -0.42069763 -0.14697973
000190 aa a2 ea bc 58 23 85 be 03 e8 d3 be df f0 cd be
       -0.028642017 -0.26003528 -0.41387948 -0.40222833
0001a0 2a a7 ad be 65 51 07 be 4d 84 c2 bd fc 36 d0 be
       -0.339166 -0.13214643 -0.094978906 -0.4066695
0001b0 4f f3 a6 be 7f 01 fe be 15 25 2c bf f0 f5 08 bf
       -0.32607505 -0.49610516 -0.6724408 -0.5350027
0001c0 e1 c0 e9 be f8 04 31 bf 87 f8 bc be 9a 19 5d bd
       -0.45654967 -0.69148207 -0.3690836 -0.053979494
0001d0 ea 76 46 be 5f 6c 0b bf 3a 0f 01 bf e7 da 57 bf
       -0.193813 -0.54462236 -0.5041386 -0.84318393
0001e0 a2 7e 08 be e4 2d ca be ad db 91 be f2 33 1a bf
       -0.13329557 -0.39488137 -0.28487912 -0.6023551
0001f0 df ab df bc 77 06 20 bf 5e cd 1f bf b4 4e c3 bd
       -0.027303634 -0.62509865 -0.6242274 -0.09536496
000200 f3 4e 07 3c e7 3a 42 be 71 20 23 bf 5d 6f b8 be
       0.008258569 -0.18967782 -0.63721377 -0.36022463
000210 60 48 a6 be 95 4b 0d bf 63 12 22 be 40 d0 88 be
       -0.32477093 -0.55193454 -0.15827326 -0.26721382
000220 1e d0 eb be 0a 2a 85 be c3 c7 8f bd 41 9f 46 bf
       -0.46057218 -0.26008636 -0.070205234 -0.7758675
000230 c3 6b c0 be a7 49 0b bf 4e a6 0d bf bb e5 4a be
       -0.37582216 -0.5440926 -0.55331886 -0.19814198
000240 df a3 06 be a0 db 79 3e 98 cc 36 bf 23 8c b1 be
       -0.1314845 0.24400187 -0.71405935 -0.34677228
000250 26 7d 12 bf 75 b5 ae be d6 9a 88 bd 37 44 2a bf
       -0.5722221 -0.34122816 -0.066701576 -0.6651034
000260 68 58 cc be f5 56 20 bf af a0 79 bf b9 9d 36 bc
       -0.399112 -0.62632686 -0.9751081 -0.011146002
000270 2f 19 b8 be cc 15 b8 be 79 0b b7 be f9 51 9c be
       -0.35956714 -0.3595413 -0.3575094 -0.3053129
000280 a4 38 eb be d2 f3 da be 1c e5 ac bd ca 67 d5 bd
       -0.4594165 -0.42764145 -0.08442137 -0.10420187
000290 ef 96 32 be b8 41 91 be 62 8a 7a 3d 7d 45 e7 be
       -0.17440389 -0.28370452 0.06116713 -0.45170203
0002a0 dd c2 b8 bd 86 68 89 be b1 e5 2e bf 9b 79 c0 be
       -0.09021542 -0.26837558 -0.6831923 -0.37592778
0002b0 37 ea 8e 3e f7 97 32 bf 56 48 21 bd 2c ad e5 be
       0.27913067 -0.6976313 -0.039375626 -0.44858682
0002c0 3f 4a cd be 96 20 82 be a2 13 35 bf 79 19 0c be
       -0.40095708 -0.25415486 -0.7073308 -0.13681592
0002d0 05 1a 25 bf 28 1b 34 bf 4d 42 06 bf 3e ed d8 be
       -0.6449283 -0.7035394 -0.52444917 -0.423685
0002e0 7b 2c 29 bf 45 cd 23 bf 71 7a 22 bf e2 40 11 bf
       -0.66083497 -0.6398509 -0.6346808 -0.5673963
0002f0 ef 6c 2d be c6 19 16 bf fe 37 da bc 5f 8c 7e be
       -0.16936086 -0.5863308 -0.026638027 -0.24858235
000300 54 29 23 be 1c 28 91 be 0c b9 90 be 80 49 a8 be
       -0.15933734 -0.28350914 -0.2826618 -0.32868576
000310 71 11 d4 be fa 52 f9 be 68 ed 56 be c7 52 95 be
       -0.41419557 -0.4869612 -0.20989001 -0.29164717
000320 2b d0 dc be 29 d7 b2 be 9d 39 b3 be f8 6c f3 be
       -0.4312757 -0.3492978 -0.35004893 -0.47544074
000330 e1 c8 08 bf 01 93 29 bf e9 9d e3 be 63 00 e9 3e
       -0.53431517 -0.66239935 -0.44456413 0.45508108
000340 a8 97 ca 3d 7c e7 13 bf e3 cc d6 be 96 76 94 bd
       0.098922074 -0.5777509 -0.4195319 -0.07249181
000350 13 2e 0c bf e0 43 27 bf f4 95 60 3c 41 b9 02 be
       -0.54757804 -0.65337944 0.013707627 -0.12765981
000360 6e 2f e7 bc c0 b8 8a 3e 7a d5 bb be 91 7e 1e bf
       -0.028220858 0.27094078 -0.36686307 -0.61911875
000370 2c df 00 bf 41 6e 0c bf fe 69 34 bf 5d 71 db be
       -0.50340533 -0.54855734 -0.7047423 -0.42859927
000380 81 77 08 be 99 38 4d bf ab a1 9f bd 4c 1a 09 bf
       -0.13326837 -0.80164486 -0.077945076 -0.5355575
000390 af 56 ea be 89 77 15 bf 9b 8a dc be 83 82 0c bf
       -0.4576926 -0.5838552 -0.43074498 -0.54886645
0003a0 5d 80 96 be 0b 50 51 bf 00 c9 9a 3e d2 8e ee be
       -0.29394808 -0.8176276 0.30231476 -0.46593338
0003b0 fa 9d 18 bf 18 e1 e2 be 47 4e b1 be 0e d5 0f bf
       -0.59616053 -0.44312358 -0.34630033 -0.5618447
0003c0 ff 86 3d bd 95 b8 b8 be c0 7f ee be 19 15 92 be
       -0.04627132 -0.36078325 -0.4658184 -0.2853172
0003d0 c0 5e a8 be 36 9e bc bc e9 09 27 bf d5 1f 10 bf
       -0.3288479 -0.02302466 -0.65249497 -0.5629857
0003e0 38 fc 0c bf 7f 88 70 be e4 a1 4d be ed 3e af bc
       -0.55072355 -0.23489569 -0.20081288 -0.02139231
0003f0 4a 57 54 bd 90 c6 b6 be 50 06 a0 be 91 e2 fb be
       -0.051841058 -0.35698366 -0.31254816 -0.49196294

bn.running_mean f4 [256]
000000 8a c7 67 bf d4 99 82 bf 1e 1c 00 40 a5 4f 58 bf
       -0.9053885 -1.0203195 2.0017161 -0.8449653
000010 b2 2e a8 3e ce 44 5b bf 5d 39 06 c0 0a ca 8f bf
       0.32848126 -0.8565186 -2.0972512 -1.1233532
000020 69 ad 03 c0 de f9 6f 40 a1 99 d7 bf 38 2e 2d 3e
       -2.057459 3.7496257 -1.6843759 0.16912162
000030 dd cb 88 3c 0a 21 b1 be 6c ce e6 be d9 a3 64 be
       0.016698772 -0.3459552 -0.45079362 -0.22328128
000040 37 d0 24 be 9a a9 02 40 a2 4c f9 be 35 02 b3 be
       -0.16095053 2.0416017 -0.4869128 -0.3496262
000050 3e a9 3d 3f bc e4 da 3e 0d e2 49 3f 12 cd b5 bf
       0.7408637 0.42752635 0.7886055 -1.4203207
000060 5e 95 20 3f d1 31 81 c0 74 0b 24 c0 64 f8 9d 3e
       0.62727916 -4.037331 -2.563199 0.3085357
000070 29 28 54 c0 63 e5 9a bf f3 d3 2b bf 6c 6b e1 bf
       -3.3149512 -1.2101253 -0.67120284 -1.7610908
000080 fc 27 72 bd 31 ba 3e be d5 15 bf bf aa 93 46 bf
       -0.059120163 -0.18625714 -1.4928538 -0.7756907
000090 3e 91 85 bf e8 59 06 bf e8 7a 0b c0 84 4d c2 be
       -1.0434949 -0.52480936 -2.1793766 -0.37949765
0000a0 1a 0b 17 3e 92 f8 19 40 86 8d c8 bf 1c 52 14 bf
       0.14750329 2.4057965 -1.566819 -0.5793779
0000b0 ce 80 24 3f 7e 2c f6 bd 51 09 aa 3f 32 d4 c5 3e
       0.6425904 -0.12020205 1.3284093 0.38638455
0000c0 59 d6 19 c0 45 73 28 3f f1 5a df 3f 88 c5 9f bf
       -2.4037077 0.6580089 1.7449628 -1.2482157
0000d0 76 07 a8 bd 6f 18 7b 3f aa 78 1e bf 24 19 ab c0
       -0.08204548 0.9808416 -0.6190287 -5.346819
0000e0 3d d4 d9 be ff 1c 8f bf 22 6d 52 3f f2 90 7f c0
       -0.42544737 -1.1180724 0.82197773 -3.9932218
0000f0 48 81 f7 3f 8c 25 fe 3e 46 1c e3 3d b4 64 97 3e
       1.9336329 0.4963802 0.11089377 0.29569018
000100 13 27 92 be 1b 34 19 40 85 e5 e3 be 24 da ac 3f
       -0.28545436 2.3938053 -0.44511047 1.3504071
000110 c1 13 39 3f 53 91 26 3f 54 8d 98 bc 14 52 b3 3d
       0.7229577 0.650655 -0.018622078 0.087558895
000120 94 9b fb bd b4 78 bd 3f 2b c4 b5 bf d3 00 fd bf
       -0.122855335 1.4802461 -1.4200491 -1.9765877
000130 ce 64 b2 c0 27 c9 0a be b4 70 45 c0 c9 fc ce bf
       -5.5748053 -0.13553296 -3.0850039 -1.6170894
000140 fc bd 4c 3e 1a 35 8f 3f e9 7e 2e bf b6 9a 3d 3e
       0.19994348 1.118808 -0.681624 0.18516049
000150 d0 10 7c 3e 5f 1d 6c c0 8c 24 e1 bf 92 79 80 c0
       0.24615788 -3.6892927 -1.7589278 -4.01484
000160 a8 3b c5 3e 06 cb a2 3f 3c fb 03 be 73 ce 99 3f
       0.38522077 1.2718208 -0.12888807 1.2016128
000170 c2 f1 87 c0 23 7e 33 40 8d 0d ef bd d4 aa 9d 3f
       -4.2482615 2.8045738 -0.116725065 1.2317758
000180 6c 39 97 40 f6 07 34 c0 c1 5a 8b bf 6b ab 4f 3e
       4.7257595 -2.812986 -1.0887071 0.20280235
000190 38 31 a4 3f 7f f0 f3 bf e5 00 09 c0 5e c3 56 3e
       1.282752 -1.9057769 -2.1406796 0.20972964
0001a0 be bb 14 c0 dc ba 98 bf 27 5e 75 bc 9b 68 ab bf
       -2.3239589 -1.1932025 -0.014976061 -1.3391298
0001b0 69 31 00 c0 4d e5 48 3f d5 e7 02 bf b0 81 b3 bf
       -2.0030158 0.78474885 -0.51135 -1.4023952
0001c0 f9 61 85 bf b0 a8 f4 3e 67 62 0c bf 76 56 f2 bd
       -1.0420524 0.47784948 -0.5483765 -0.11832897
0001d0 60 92 99 3f 18 67 92 3f 9f fb d3 3f b7 b8 a9 be
       1.1997795 1.1437712 1.6561164 -0.3314874
0001e0 ff a8 9c 40 67 b9 e0 3f 7e 64 44 bf 84 14 ad bd
       4.8956294 1.755658 -0.7671584 -0.08451179
0001f0 84 63 97 3d 8c fd 6d c0 5a 82 b2 3f a5 d7 6b bf
       0.07392028 -3.7186003 1.394603 -0.9212592
000200 96 95 a9 3f c5 4c 93 bf 01 3c cf be 17 b1 7c 3e
       1.3248775 -1.1507803 -0.40475467 0.2467693
000210 27 ac 3e 40 fd 0b 31 3e ea 9a 06 bf 29 79 33 bf
       2.9792573 0.1728973 -0.5258013 -0.7010675
000220 e3 46 3a bf 20 dc e0 bf c7 60 12 bf dc c6 9e bf
       -0.72764415 -1.7567177 -0.5717892 -1.2404437
000230 ea d4 68 c0 e5 f4 f3 bf 5b e2 51 c0 a7 73 28 3e
       -3.6379952 -1.9059111 -3.2794406 0.16450368
000240 b1 d4 1b bf 5b ab a9 3f c3 35 16 bf b5 63 b4 3f
       -0.60871416 1.3255419 -0.58675784 1.4092928
000250 64 54 28 40 28 04 88 bf c8 b3 d1 be cc 16 7f bc
       2.6301508 -1.0626268 -0.40957475 -0.0155694
000260 70 1b 89 3e 0a f6 fb bf be bb d1 bf 26 bc a4 3d
       0.26778746 -1.968446 -1.6385419 0.08043699
000270 cb 3b 94 3f 4e 07 c0 be 74 6e 9a be 0c 5f 1f 40
       1.1580747 -0.37505573 -0.30162394 2.4901762
000280 d6 32 86 3f c8 4b 05 40 f8 d3 29 3f 0e 08 14 bf
       1.0484264 2.0827503 0.66339064 -0.5782479
000290 30 dc 80 bf 84 0c 19 40 24 2b 61 bf 52 0b af bf
       -1.0067196 2.391389 -0.8795645 -1.367533
0002a0 f3 7b b8 be 0b a9 b1 3f 49 ea fe bf cd f1 50 3e
       -0.36032066 1.3879713 -1.9915248 0.2040474
0002b0 66 c4 c8 3f 35 48 cd bd fa 4e 3c 3d af cb a4 bf
       1.5684936 -0.10023538 0.045973755 -1.2874659
0002c0 99 c6 cf 3f 54 ff 2f bd 71 de 5c c0 9f ac 9b 3e
       1.6232482 -0.04296811 -3.4510767 0.30405137
0002d0 29 da a3 bf 7d 1c 69 bf e6 39 88 c0 c2 94 47 40
       -1.2800952 -0.91059095 -4.2570677 3.1184545
0002e0 f4 65 20 c0 b1 da e2 be 79 70 d2 3e 49 cc 55 bf
       -2.5062227 -0.44307473 0.41101435 -0.8351484
0002f0 a4 3e 9b 3e 2e 69 f0 bf d8 7b 30 bf 7b d0 6a 3f
       0.30321229 -1.8782098 -0.6893897 0.91724366
000300 db d3 3d 40 2b 55 13 c0 af 5c b8 3f 11 39 ef be
       2.9660556 -2.3020732 1.4403285 -0.46723226
000310 74 fe fb 3f bd 1a 84 3f 85 1c 4c bf a6 47 ad be
       1.9687028 1.032066 -0.7973102 -0.33843726
000320 b1 ba b3 bf 15 cf 4e 3e f5 2c 3b 3e 4f b6 b5 bf
       -1.4041349 0.20196183 0.18278868 -1.4196261
000330 c4 6f d0 3d 73 15 54 bf 5f fe 39 bf ed 19 01 40
       0.101775676 -0.8284523 -0.72653764 2.0172074
000340 de d6 48 bf e4 45 08 c0 ea 44 18 c0 8e 60 55 40
       -0.7845286 -2.1292658 -2.3792062 3.3340182
000350 1c 5b fa bf 21 d8 00 c0 99 bb 37 bf ad 4a 2e bf
       -1.9559054 -2.0131915 -0.71770626 -0.68082696
000360 13 00 fd bd f9 89 48 3f 2b 42 fd 3e c0 e3 ea be
       -0.1235353 0.7833553 0.49464545 -0.45876884
000370 05 5e f4 be 5b c2 2a 3e 5f 54 8d be d8 5e 20 bf
       -0.4772798 0.16675703 -0.27603433 -0.6264472
000380 0c 17 d3 be 1d 48 3d bf 79 78 8a 40 5a e9 4a c0
       -0.4122852 -0.7393816 4.327206 -3.1704926
000390 57 74 ab 3f af de 7e bc ab a2 da bf b5 75 99 bd
       1.3394879 -0.015556022 -1.7080892 -0.07493154
0003a0 74 e5 30 3d 8c f2 a6 c0 d2 78 2d 3f e8 49 3c c0
       0.043187574 -5.217108 0.6776248 -2.9420109
0003b0 89 36 b1 3e 1d bd 2b 40 97 bd 5f c0 02 0d ab bf
       0.3461192 2.6834176 -3.4959466 -1.3363345
0003c0 5b 25 16 40 bc 76 8f bf 8b 7a 78 3e f1 f1 fa bf
       2.34603 -1.120811 0.24265496 -1.9605085
0003d0 13 5e a5 be b0 07 80 3e 48 3c e8 3f 38 8d d8 be
       -0.32298335 0.25005865 1.8143396 -0.4229524
0003e0 ae a4 d5 3f 00 b2 e0 3f 01 c2 99 bf 5b 24 65 c0
       1.6690881 1.7554321 -1.201233 -3.580344
0003f0 a3 a5 93 3f b1 a9 0a 3f 63 2f 41 bf 35 41 01 c0
       1.1534923 0.5416518 -0.7546293 -2.019605

bn.running_var f4 [256]
000000 3f 21 2c 40 34 1b 0a 41 12 11 2a 41 3c 7e d6 3e
       2.6895292 8.631641 10.629168 0.41893184
000010 56 5f 1a 41 6c d4 b9 40 7c 23 b3 40 59 3e b5 40
       9.648275 5.8071804 5.5980816 5.663861
000020 6c 13 63 40 dc cc 86 41 d9 a9 00 41 ae 10 e9 40
       3.5480604 16.850029 8.041467 7.283286
000030 ef 8f 80 3e b3 ca 0e 41 e9 8f cc 40 7b 35 32 41
       0.25109813 8.924487 6.392567 11.138057
000040 3e 2b f6 41 9d 72 4e 41 c9 93 8c 41 9e 24 d3 40
       30.771114 12.902982 17.57216 6.59822
000050 d8 1c 9d 3f 26 15 51 41 bf 23 c3 40 05 70 86 41
       1.2274427 13.067663 6.0981135 16.804697
000060 0a 2f 3e 41 04 fa b7 40 fc f8 a1 41 91 64 20 3e
       11.886484 5.7492695 20.246574 0.15663363
000070 0a 96 50 41 8a 38 8c 41 85 b6 25 41 19 06 8b 41
       13.036631 17.527607 10.35706 17.377977
000080 e8 73 70 41 ad bd a5 40 14 c2 f3 40 84 6a 61 3e
       15.028297 5.179404 7.617441 0.22013289
000090 38 27 1b 41 e8 16 0d 42 26 ff 5b 40 40 6d 61 40
       9.697075 35.27237 3.437448 3.522293
0000a0 3b 24 f3 41 f7 a7 fb 40 ae 99 a0 40 79 df 37 41
       30.39269 7.8642535 5.0187597 11.492059
0000b0 dc 46 11 41 6c bb 55 41 f9 c9 de 40 15 36 20 41
       9.0798 13.358257 6.962155 10.013204
0000c0 6f c0 0c 41 68 0f f1 40 7f a5 d6 40 f1 3c 94 41
       8.796981 7.5331306 6.707702 18.529757
0000d0 5b 0c 82 40 2e b9 4b 41 8f 04 25 42 51 24 48 41
       4.064008 12.73271 41.25445 12.508866
0000e0 b1 f5 a7 3f 0b ee 2c 41 4a af b0 41 0c 4a 95 41
       1.3121854 10.808116 22.08559 18.661156
0000f0 74 4b 5f 40 0d 31 cc 40 38 2d 4d 41 1b 9f 05 3f
       3.4889803 6.3809876 12.82354 0.521959
000100 1f 01 6f 3f e8 bc 81 41 aa 97 d6 40 ff d4 0e 41
       0.93361086 16.21724 6.7060137 8.927001
000110 99 9c 5f 40 c1 92 cd 40 d4 45 b5 41 b0 08 0c 41
       3.493933 6.4241643 22.659096 8.752121
000120 1b 7f 1f 41 32 a5 96 41 8f e0 20 41 11 f7 3f 41
       9.968532 18.830662 10.054824 11.997819
000130 5a 86 1e 41 b9 50 5f 3f 48 9d c7 40 76 56 1d 41
       9.907801 0.8723255 6.2379494 9.833609
000140 51 b4 bd 3e 05 bc a6 41 3c 15 9a 40 33 73 df 3e
       0.37051633 20.841806 4.815092 0.43642578
000150 cc 85 44 40 47 f5 ca 41 c5 6f 2a 40 1d 9c 8d 40
       3.0706663 25.369764 2.6630719 4.425307
000160 75 be e9 3f 6b 6b ce 41 cc 49 69 41 a5 b7 38 40
       1.8261248 25.80245 14.580517 2.8862088
000170 43 7c bb 40 34 d0 75 41 5c a5 50 3e 8e 34 c9 40
       5.8589187 15.363331 0.2037558 6.2876654
000180 12 da 24 41 82 31 25 41 f3 26 6e 3f ca 64 f5 3e
       10.30324 10.324587 0.9302818 0.47928458
000190 b3 81 15 41 b3 1b 1e 41 b1 4d 56 41 59 37 29 41
       9.344165 9.8817625 13.393968 10.576013
0001a0 9c f1 50 40 09 7e 65 41 6d c6 81 3f ea b0 20 3f
       3.2647467 14.34327 1.013868 0.6276995
0001b0 2b 47 63 40 ad d7 6d 41 e2 83 8b 40 94 b3 54 41
       3.5512187 14.865155 4.359849 13.293842
0001c0 69 a2 03 41 58 e2 52 41 2f 6b 18 41 40 ba 2f 3f
       8.227151 13.18026 9.526168 0.6864357
0001d0 50 f1 6e 40 38 6b a6 41 18 1d 10 42 a0 08 7d 40
       3.7334785 20.802353 36.02841 3.9536514
0001e0 c0 b5 0f 41 4a c7 ab 40 4a 9b 93 40 5b 91 03 3f
       8.981873 5.3680773 4.612706 0.5139367
0001f0 99 97 99 3e 3e ee 08 41 98 f8 f8 40 0f 9a 91 3f
       0.29998472 8.558165 7.780346 1.137514
000200 91 65 60 41 84 e6 af 3e ca 85 f8 40 f7 11 4b 3f
       14.0247965 0.34355557 7.7663317 0.7932429
000210 76 3e 0c 42 55 b5 b6 40 36 cc 30 3f c4 97 8c 41
       35.060997 5.7096353 0.690616 17.574104
000220 2c 7c 20 40 59 3a 19 41 35 d2 d5 40 3f e9 0d 40
       2.5075788 9.576745 6.68191 2.2173612
000230 83 c9 4d 41 22 47 89 40 ee 72 01 41 05 bf 57 40
       12.861697 4.289933 8.090559 3.371034
000240 a7 f4 23 3f 01 be 52 42 c8 e2 42 3f 1b 80 29 41
       0.64045185 52.68555 0.7612729 10.593776
000250 ce 91 cb 40 17 27 f7 40 bc 88 fc 3e 18 3c 98 40
       6.3615484 7.7235217 0.4932307 4.7573357
000260 0d 7a 7b 41 74 86 25 41 66 ea 17 40 72 f3 64 3e
       15.717298 10.345325 2.3736815 0.22358492
000270 cb 6b c2 40 ba cf a7 40 1e b1 9d 41 fc f2 9f 41
       6.0756583 5.2441072 19.711483 19.993645
000280 24 d8 21 40 c3 28 8b 3f 86 5b d3 3e df 2f 60 3f
       2.5288172 1.0871814 0.41280764 0.87573045
000290 02 3a c5 40 62 e5 d2 40 a1 72 33 41 bd 1f 9f 41
       6.163331 6.590501 11.215486 19.890497
0002a0 bd 39 7f 3e b3 00 bd 40 da 31 e1 40 f5 78 fc 40
       0.24924369 5.9063354 7.0373354 7.8897653
0002b0 ea 78 4d 40 3d 6b 97 3f 49 e2 88 40 33 85 58 40
       3.210505 1.1829602 4.2776227 3.3831298
0002c0 f1 04 f3 40 f4 c2 f6 40 8b b3 84 41 d8 10 f1 3e
       7.594353 7.711298 16.587667 0.47083163
0002d0 70 2a b3 41 d6 e2 87 40 6b e8 51 40 04 ce c1 40
       22.395721 4.24644 3.2798107 6.0563984
0002e0 c6 14 43 41 97 47 04 41 48 2e b1 40 9c 64 9c 40
       12.192572 8.267478 5.5368996 4.8872814
0002f0 f7 6a 00 3f 6c 4e 3b 41 5f 4b 95 41 b2 e7 99 41
       0.50163215 11.706646 18.661802 19.238132
000300 94 46 bd 41 b0 ec aa 40 2f 84 72 41 8c 23 7f 40
       23.659462 5.3413925 15.157271 3.9865446
000310 6f 71 7e 41 4a 7d 03 40 f2 60 27 41 5f 92 ad 40
       15.902694 2.054522 10.461168 5.4241176
000320 1d 40 af 41 e1 12 98 41 94 fc 3d 40 12 7d 6a 41
       21.906305 19.009218 2.9685411 14.655535
000330 2e 31 72 41 d4 4b bf 41 53 84 a4 40 e0 9e d0 42
       15.137007 23.912025 5.141153 104.3103
000340 5b a4 23 41 78 a3 24 41 6e d0 ba 41 0b f7 d9 40
       10.227626 10.289909 23.351772 6.8114066
000350 52 9a 7a 41 48 f8 a6 41 87 95 32 41 75 cf 22 40
       15.662676 20.871231 11.161506 2.5439122
000360 85 56 f0 3f 17 2a 97 40 df e3 15 40 c6 4b eb 41
       1.8776404 4.723888 2.3420331 29.411999
000370 42 db c8 41 1f a9 0b 41 41 da 03 41 b4 21 f6 40
       25.10706 8.728789 8.240785 7.691614
000380 f8 45 d6 3e 99 af a6 40 6f a9 c5 40 0d b3 bf 40
       0.41850257 5.2089353 6.176933 5.990607
000390 f0 08 a3 40 3e ac 59 40 51 35 9d 40 51 55 c9 40
       5.094841 3.4011378 4.9127584 6.2916646
0003a0 84 38 12 41 ac d9 a2 40 93 65 f9 41 3c df a3 40
       9.138798 5.0890713 31.174597 5.1210003
0003b0 ed 74 a6 41 6b 86 2d 41 0f 6b ac 41 ef 05 81 40
       20.807093 10.845317 21.552275 4.0319743
0003c0 74 f7 fb 41 bf 71 f7 41 b2 41 03 42 8c e7 59 41
       31.495827 30.93054 32.814156 13.61903
0003d0 bb 60 ce 40 fa 95 99 3e 8f af 5c 40 93 d1 73 40
       6.449308 0.29997236 3.4482152 3.8096664
0003e0 e6 d7 d0 40 1e 16 d9 40 f5 07 9d 41 76 d3 59 41
       6.526355 6.78395 19.628885 13.614126
0003f0 9e a0 b7 41 8f 13 f2 41 0a b9 bc 40 a2 68 f6 40
       22.953426 30.25955 5.897588 7.7002726

fcs1.weight f4 [256, 33]
000000 88 e0 07 3f 57 c2 00 3f dc 2d 01 3f 3d 68 aa 3d
       0.5307698 0.5029654 0.504606 0.08320663
000010 ad a5 f8 3d 51 22 35 3e 8a 62 01 3d 5e 1c a4 bb
       0.12140975 0.17688872 0.031588115 -0.0050082644
000020 b9 a9 b4 be 5c 2d 96 3d c4 37 e5 bb fb d1 2a 3d
       -0.35285738 0.0733287 -0.006995173 0.04170416
000030 4b 07 16 bd fe 8b f9 be 0f 19 0d be 12 94 0e bf
       -0.03662805 -0.48739618 -0.1377909 -0.5569469
000040 88 a1 0f bd c4 fc 09 bd 82 e0 25 be fd 64 f2 bc
       -0.035066158 -0.03368832 -0.16198924 -0.02958917
000050 d7 c9 e4 bc 66 de ac bd 63 fd 7b 3d c7 86 af bc
       -0.027928276 -0.08440857 0.061520945 -0.021426572
000060 2e 15 f0 3c f0 13 c2 bd 96 5d df 3c 74 83 04 bd
       0.029306974 -0.09476459 0.027266305 -0.032351926
000070 10 95 c0 3e 8e 22 07 bd ab 86 e9 bc fc 8c 03 3d
       0.37613726 -0.03299194 -0.028506598 0.032116875
000080 ab 66 07 40 47 4a d4 be be 2f 24 bd 8a 07 91 be
       2.1156414 -0.4146292 -0.040084593 -0.28326064
000090 c1 d8 9c be 1a 8f 1c 3d a3 d7 9b be 49 a4 86 3e
       -0.3063412 0.03822241 -0.30437955 0.26297215
0000a0 40 5f 10 bf 10 c6 91 3e e4 b3 01 3f 68 21 53 3e
       -0.5639534 0.28471422 0.50665116 0.20618212
0000b0 30 6a 91 3e bd d9 9a 3e 0c e7 a0 be 93 34 91 3e
       0.28401327 0.30244246 -0.31426275 0.28360423
0000c0 9f dc 21 be db d9 3a be cb 45 7a 3e a8 09 e9 be
       -0.15806817 -0.18247168 0.24440686 -0.4551518
0000d0 63 5a e0 3e 9b 42 1b be 9d c7 4e be ff f7 f7 3e
       0.4381896 -0.15162127 -0.20193334 0.48431394
0000e0 78 5e bd bd 58 4f 23 3f e0 3f 3d be bb 36 f4 bc
       -0.09246534 0.63792944 -0.18481398 -0.029811254
0000f0 fb ab d6 bc 26 2f 0b 3e c0 ea 91 ba 72 c7 2c bc
       -0.026205054 0.13592204 -0.0011132583 -0.010545598
000100 94 a7 70 3d ea e0 c2 be db 27 ab 3d 13 68 06 3e
       0.058753565 -0.3806222 0.08357211 0.13125639
000110 00 ca ed 3e 74 36 3a bd e6 fd f6 bd 2e e3 2c bf
       0.46443176 -0.045462087 -0.12060146 -0.6753415
000120 42 06 c6 3e 4f 98 14 3d 86 56 4c be 5c 06 8e be
       0.3867665 0.036278065 -0.19954881 -0.27739227
000130 82 2e c2 be c4 41 71 be a9 17 20 bf 90 f9 f1 3e
       -0.37926108 -0.23560244 -0.625361 0.47260714
000140 a7 ad 41 bf da a9 1a be 3a 67 a9 bc ed dd 5a 3e
       -0.756556 -0.15103856 -0.020679105 0.2137372
000150 24 09 e5 bd 7f 16 a1 3e 1f 81 09 3f 3b 09 92 3c
       -0.11183384 0.31462476 0.5371265 0.017826667
000160 c6 c1 df be 25 ca 89 be 8d ad 35 be 79 9d 39 bd
       -0.43702525 -0.26912037 -0.17741986 -0.045316193
000170 95 70 93 bb 09 eb 47 bc 09 d5 ff 3d 58 64 71 3d
       -0.004499505 -0.012202033 0.12491805 0.058933586
000180 8f e0 4c bc ae f8 2e 3d d2 5e 4e bf a1 28 e4 3d
       -0.012504711 0.04271763 -0.80613434 0.11140562
000190 6e ce be 3e 5a 42 4f 3f 9d 1b 0f 3e 39 90 79 bd
       0.37266868 0.8096062 0.13975377 -0.060928557
0001a0 ca 40 e9 3b ce 56 e8 bc 4f a0 f5 bc 2e 2b 74 3d
       0.007118319 -0.028361704 -0.029983668 0.05961149
0001b0 f6 8f a3 bd f3 bc 7e 3d 26 f6 25 bb d8 e1 3d bd
       -0.07986443 0.062191915 -0.0025323718 -0.04635796
0001c0 c9 e8 75 3d 26 84 b4 bd a6 a3 72 bf c2 c1 7e bc
       0.060036454 -0.08814268 -0.9478096 -0.015549125
0001d0 e2 3b 58 3d a4 19 d3 bd 97 59 67 3c c6 22 5e 3c
       0.052791484 -0.10307625 0.014120481 0.013558095
0001e0 33 72 a9 3c 03 53 6f bd 88 cf 1a 3d 11 bc 8e 3c
       0.020684337 -0.058428776 0.037795573 0.017423661
0001f0 fb 7a 82 bd 23 24 21 bd f6 5e 79 3d 71 f3 01 3f
       -0.06371113 -0.039341103 0.060881577 0.5076209
000200 5e 79 36 bd a7 7e b1 bc 60 1a 7c 3d 4e d3 77 3e
       -0.04454934 -0.021666838 0.06154859 0.242017
000210 d2 2c 11 39 cb 90 f4 bd ca 25 b6 bb 1a 52 c1 bd
       0.00013844974 -0.119416796 -0.005558704 -0.09439488
000220 6d f9 5c be 35 a4 ee 3c 64 33 98 3d 23 34 01 3d
       -0.21579523 0.029131034 0.07431677 0.031543862
000230 8e 5d bd 3e 04 84 ac 3e b7 98 60 be 17 43 d1 3c
       0.3698544 0.3369447 -0.21933256 0.025544686
000240 dc 01 b3 bd 19 7e 75 3e 35 e5 29 3b 0f 75 94 be
       -0.08740589 0.23973884 0.0025923972 -0.2899556
000250 16 92 a3 3e 53 c3 56 3d db 44 18 be c0 bf 61 bd
       0.31947392 0.05243237 -0.14870016 -0.055114508
000260 3d bf bd bd 5a 8e 99 3c fb 23 a7 bd 87 ec ed 3e
       -0.092649914 0.018744636 -0.081611596 0.4646952
000270 b3 a5 57 be c3 04 9b be 17 91 ef be b7 a3 57 bc
       -0.21059303 -0.3027707 -0.46790382 -0.013161591
000280 6f 7a 5b bd 4e 80 77 3d cd 27 7d 3d 50 a6 dd 3b
       -0.05358356 0.060425095 0.061805535 0.0067642108
000290 5b 2c 02 40 36 8b 65 be 77 28 88 be e1 7d 8e be
       2.0339572 -0.22416386 -0.26593372 -0.27830413
0002a0 8f 00 04 bd f5 e7 27 3e 00 b8 45 bd 0c 57 c0 bc
       -0.032227095 0.16397078 -0.04827118 -0.023479007
0002b0 84 ac 2b bd 58 cc 22 bf 93 e0 2f bd a3 f8 aa 3e
       -0.04191257 -0.63593054 -0.04293878 0.3339282
0002c0 4f ca 00 3e 81 dd 6b 3c db 0a 93 3a 3c 76 df 3e
       0.12577175 0.014396072 0.0011218445 0.43644893
0002d0 d6 1e 27 3f fd 76 13 3e 02 15 d1 bc 1c 22 00 be
       0.65281427 0.14400859 -0.025522713 -0.12513012
0002e0 5e b4 66 3e fd e3 a2 3d f9 b5 b0 be 4d 86 0e 3d
       0.22529742 0.079536416 -0.34513834 0.034796048
0002f0 87 59 e0 3c 63 e8 21 3e 32 f4 e3 3e bb 31 ad 3e
       0.02738644 0.15811305 0.44522244 0.33827004
000300 02 47 59 3c b9 ac f3 be ac 0c ed 3c d4 9f bc 3c
       0.0132615585 -0.47592714 0.028936706 0.02302543
000310 00 12 5a bc f8 66 3a 3f 99 92 6a bf 97 ef 79 3d
       -0.013309956 0.7281337 -0.9162994 0.061019506
000320 45 2e 85 3e 2a 5d 61 3e 9e 4a 04 bf a6 61 81 be
       0.26011863 0.22008196 -0.51676357 -0.25269812
000330 d4 0b 2b be fa 22 97 3d 2d dd 83 bf 5d 70 9b bd
       -0.16703731 0.07379718 -1.0301872 -0.07589791
000340 2e 49 91 be 50 56 95 3d b5 f6 54 3e f1 43 45 3c
       -0.28376144 0.072918534 0.20797236 0.012040124
000350 1e fa 1d 3f e4 6e 8b be 31 e4 e6 3d 76 58 a2 bd
       0.61709774 -0.2723304 0.11273993 -0.07927029
000360 8c 6c 04 be ba e6 7e bd 7e b6 d5 3d 69 5f fc 3d
       -0.12932032 -0.062231757 0.10435198 0.123228855
000370 7e fa cd bc 3f bd fe 3d 71 23 bb 3e 2d d0 68 bd
       -0.025143858 0.124384396 0.36550477 -0.056839157
000380 12 37 8b 3e f1 70 25 3c 76 cd 70 be 08 15 e1 3c
       0.27190453 0.010097728 -0.23515877 0.027475849
000390 ca d9 a9 3c 94 ab 61 bd 58 45 3e 3f 37 75 bd be
       0.020733733 -0.05509527 0.7432456 -0.3700349
0003a0 d2 e5 e1 3e 6f 8d 27 3f 3f 2e 91 be eb ed b5 bd
       0.4412065 0.65450186 -0.28355595 -0.0888327
0003b0 4d af eb 3d f5 7f 1b bd bf 7a f6 bd 2d 87 57 be
       0.11508045 -0.037963826 -0.12035131 -0.21047659
0003c0 a0 45 b6 3e bc d1 d9 3d 55 59 93 be ed 42 e9 3d
       0.35599995 0.10635707 -0.28779092 0.11389718
0003d0 8b 12 a2 3e 81 af 70 be e9 4d 7c 3e 8b af 1e 3d
       0.31654772 -0.2350445 0.24639095 0.03874163
0003e0 78 e1 9f bd 1d e4 fb 3c 36 c1 36 3d ce 2b b3 3e
       -0.078066766 0.030748421 0.044617854 0.34994358
0003f0 b6 ea dd bc e3 83 57 be e2 70 64 bd a9 21 8a bd
       -0.027089458 -0.21046405 -0.055771716 -0.067447014

fcs1.bias f4 [256]
000000 90 a2 06 3d 7e 49 0a bd 10 6c 91 3d 2e 46 32 be
       0.032869875 -0.033761494 0.071006894 -0.17409584
000010 03 f4 91 bc 1d 62 11 bd b2 85 08 be f9 db 06 bc
       -0.01781655 -0.03549396 -0.1333225 -0.0082311565
000020 79 cd 25 3d 8c 41 2d be 1f d6 11 3e aa 98 c9 3d
       0.040479157 -0.16919535 0.14241837 0.098435715
000030 40 de 2f 3e 9a 3a 99 bd de 81 fc bd 40 9a d9 3d
       0.17174625 -0.074818805 -0.12329458 0.10625124
000040 12 8d 27 3e 9c d7 cf bd 72 33 d1 bd 07 07 53 bc
       0.16362408 -0.10148546 -0.102148905 -0.012880093
000050 d2 26 17 3e 2c f0 dc bc bd e2 2a be fe a4 93 bd
       0.14760903 -0.026969992 -0.16688056 -0.07209204
000060 c9 fe cb bd fe 70 06 3e 1e 83 02 be 64 10 05 3e
       -0.09960706 0.1312904 -0.1274533 0.12994534
000070 f3 17 85 3d d3 b6 7e bc 00 f9 33 bd 39 08 c5 3d
       0.064987086 -0.015546518 -0.043938637 0.09620709
000080 50 e1 c9 bd f8 b2 89 bd 7f 5a 1d 3e 1f da 89 bd
       -0.09857428 -0.06723589 0.15366553 -0.067310564
000090 6b 7a 91 3c 1c b8 10 3e 26 d6 0b be 15 c6 ec 3c
       0.017758569 0.14132732 -0.1365591 0.028903047
0000a0 6c 74 9d 3b 1c 32 b8 bd 31 f0 0f 3e 18 d8 f5 3d
       0.0048051383 -0.089939326 0.1405647 0.12004107
0000b0 86 2e 3b bc 04 0b 99 bc 19 1d de 3d 60 f0 6b bd
       -0.011424666 -0.01868201 0.10845394 -0.057602286
0000c0 18 f3 c9 3d 3e 50 ed bd f6 73 12 be 5b 0f ee 3d
       0.098608196 -0.115875706 -0.14302048 0.116240226
0000d0 5b 2e f3 3d 78 93 0a be ee e3 1d bd b8 6a 97 3d
       0.11874076 -0.13532817 -0.03854745 0.07393402
0000e0 bb f9 be 3d 8c 79 d4 3d 3d e4 f9 3d 42 26 a3 bd
       0.09324976 0.10374746 0.12201736 -0.079662815
0000f0 e7 de 17 3d e1 0a 19 3e 1d 49 12 be 1a 67 e8 3d
       0.03707781 0.14945556 -0.14285703 0.1134779
000100 8e 7a 33 3d a6 bb f9 3b ce a2 30 3e b2 ec 93 bd
       0.04381805 0.0076212464 0.17249605 -0.072228804
000110 ba b7 44 bd f0 7a 04 be d9 11 16 3e ba 56 02 be
       -0.048026778 -0.12937522 0.14655246 -0.12728396
000120 7d 6f 1f 3e bb 2b 03 be 9d 50 cc 3d 99 01 b2 bd
       0.15569873 -0.1280965 0.09976313 -0.08691711
000130 e4 ad 1c 3e e9 fa ee bd f2 d6 e6 bd 00 f6 4d bd
       0.15300709 -0.11668951 -0.11271466 -0.050283432
000140 f3 4f 0f be a4 66 29 3e 42 3a 84 3d d2 a2 c1 bd
       -0.13995342 0.1654306 0.06456424 -0.09454884
000150 f0 da 06 be df 9c 6b bd 0d 2e d6 3c 15 a8 a0 bd
       -0.13169456 -0.05752265 0.026145006 -0.07844559
000160 0a 18 cf 3d 81 06 af bd cf 70 54 3d 60 96 00 3e
       0.10112007 -0.085461624 0.051865395 0.12557364
000170 22 c4 fc bd 1c 2f 0b be e0 7c 2a be f7 23 06 3d
       -0.12342097 -0.1359219 -0.16649199 0.032749142
000180 68 06 0c 3e 03 3e e3 bd fe 62 be bc 58 2d df 3d
       0.13674319 -0.11095812 -0.023240563 0.108973205
000190 a0 52 0a 3e b3 9a c3 3d e6 5d 64 3d fa 6b f7 3c
       0.13508081 0.09550991 0.05575361 0.030202854
0001a0 d7 8b 50 3c 2b 9e 1b 3e af 9a cb 3b 2e c1 89 3d
       0.012728653 0.15197055 0.006213508 0.06726299
0001b0 09 32 50 bc 9d 2c 0d 3e fd c9 30 be 37 cf 62 bd
       -0.012707242 0.1378655 -0.17264552 -0.055373397
0001c0 b7 d2 2a be fa 85 27 3d 21 35 23 bd 2d 7f 12 be
       -0.16681944 0.040899254 -0.03984559 -0.14306326
0001d0 a1 89 08 be a7 79 4b 3d cb cd 05 3e f4 22 18 3e
       -0.13333751 0.049676564 0.13066785 0.14857084
0001e0 28 be f4 3d 1c e6 0f be 22 2b 14 3e ae 1a 2a 3e
       0.11950332 -0.14052624 0.14469579 0.1661174
0001f0 80 28 0a 3c 8a 21 2b be c0 e1 00 be be d6 1d be
       0.0084325075 -0.16712013 -0.12586117 -0.15413949
000200 14 46 e6 3c 30 98 12 3e d6 b1 e4 3d f7 38 ad bd
       0.028109588 0.14315867 0.11166732 -0.08458131
000210 5c 31 9b bd 3a ff 26 3d 13 a9 c0 bd ac 79 88 bc
       -0.07577774 0.040770747 -0.09407248 -0.01665958
000220 04 38 4e 3d 63 9a 82 bd 90 04 80 3d ea 5f cb bc
       0.05034639 -0.06377103 0.0625087 -0.024826009
000230 ad 07 24 3e c5 40 12 be 9a 7f 16 3e 40 62 f0 3d
       0.16018553 -0.1428252 0.14697114 0.1173749
000240 09 a1 1f be c4 0b 27 3d c7 b3 ba bc 0f 77 a7 3d
       -0.15588774 0.040782705 -0.022790803 0.081770055
000250 a5 d4 00 3e c9 82 bf bd 67 c4 ca bd 18 53 01 be
       0.12581117 -0.09351117 -0.09900742 -0.12629354
000260 b6 5f 01 3e 44 52 15 be f1 72 df bd 36 96 20 3e
       0.12634167 -0.14582163 -0.10910595 0.15682301
000270 34 b8 b7 3d 46 e2 f3 3d 05 91 19 3e 5e 82 1b be
       0.08970681 0.119083926 0.14996727 -0.1518645
000280 ec 76 31 bd 21 bb 6f bc 44 e2 24 3e e2 7c 49 bd
       -0.043326303 -0.014632017 0.16101938 -0.049191363
000290 8b 8d 3e bc 6d 25 ca 3d 6e 89 b9 3d c4 a2 e8 bd
       -0.011630426 0.0987042 0.09059416 -0.1135917
0002a0 99 d6 1a be a4 ae 86 bd 55 82 63 3d 45 9c 29 3e
       -0.15120925 -0.06576279 0.055544216 0.16563518
0002b0 26 8c a0 3d 63 75 ce 3d f0 72 5b 3d 67 67 35 bd
       0.07839231 0.100809835 0.05357641 -0.044288065
0002c0 bc 92 eb bc 2c fc 15 3e 08 09 18 3d 04 78 0e 3d
       -0.028756492 0.14646977 0.037117988 0.034782425
0002d0 89 a7 d0 3d 5f 87 00 3e a2 16 4b 3d 0f 0f 90 bc
       0.10188205 0.1255164 0.04958213 -0.017585305
0002e0 76 bb 9d bd aa 15 d9 bd 7c 24 b2 bd e8 10 11 3e
       -0.07701771 -0.10599835 -0.08698365 0.14166605
0002f0 12 eb 0d 3e f7 7c bc bd ca 38 16 3e 29 18 38 bd
       0.13859203 -0.09203523 0.14670101 -0.044944916
000300 9e 08 34 bd 91 44 62 3d eb e2 10 be 94 f3 d2 bd
       -0.04395353 0.05524117 -0.14149062 -0.10300365
000310 b5 91 d0 bc 32 2b 60 bd 02 fb b3 3d d8 b2 28 bd
       -0.025460104 -0.054728694 0.0878811 -0.041186184
000320 cd e3 17 be 8b 40 1b be b5 3c 2c 3e 6d c2 a0 3d
       -0.14832993 -0.1516134 0.16820033 0.07849584
000330 1f 75 31 be ad 3a 12 be 68 7b e1 bd b0 65 21 3e
       -0.17329834 -0.14280196 -0.11009866 0.15761447
000340 f4 f8 c1 3d ad a8 68 3d c1 c3 c9 3d 5c 5c f1 3c
       0.09471312 0.056801487 0.0985179 0.029462986
000350 80 37 fe 3d 1f 8b 0f be 7a 0d 0c 3e 7a fa a2 3d
       0.124129295 -0.14017914 0.13677016 0.07957931
000360 ac ac 6c 3d af 0a e4 3d 39 f3 0b bd 11 5f a9 bd
       0.05778186 0.1113485 -0.034167502 -0.082700856
000370 a1 e3 41 bd 2c ac 05 be c2 e4 51 3a 49 28 b7 3d
       -0.047336224 -0.1305396 0.0008006805 0.08943231
000380 74 bb 04 3d 63 b9 c4 bb 59 c1 86 3d 15 87 22 be
       0.03240533 -0.006003545 0.06579847 -0.15871842
000390 df 7f ea bd 16 8d 1b be 3f 45 31 3e 6b 14 22 be
       -0.11450171 -0.15190539 0.17311572 -0.15828101
0003a0 b7 61 a9 3d 0c 07 00 3e 7c 26 4a bd eb ee e0 bc
       0.08270591 0.12502688 -0.049353108 -0.027457675
0003b0 2c 77 12 3e 31 b4 11 be 15 c0 31 be 9f 8b d1 bc
       0.14303273 -0.14228894 -0.1735843 -0.025579272
0003c0 9e 94 b6 bc 62 e6 91 bd ca e5 5e 3c 51 a2 bd 3d
       -0.022287663 -0.0712402 0.013604591 0.09259475
0003d0 cf 5b bf 3d 58 b3 4f 3d c1 c6 fb 3d 97 6b a6 bd
       0.09343683 0.050708145 0.12293769 -0.0812599
0003e0 c4 d7 3d 3c 9e 09 6f 3d 76 50 65 3d 43 40 7f bd
       0.011587087 0.05835878 0.055984937 -0.062317144
0003f0 b1 c4 10 3e 04 40 08 be 13 19 a9 bd 5c ff 2a be
       0.14137532 -0.1330567 -0.08256736 -0.16698974

fc2.weight f4 [128, 260]
000000 b1 45 09 bc 89 20 b0 bd 49 25 8e bd 0e b3 be bd
       -0.008378432 -0.085999556 -0.06940705 -0.09311496
000010 de 18 25 3c be 27 df 3c 91 a1 9e 3c 3c a6 cc bd
       0.01007673 0.02724063 0.01936415 -0.09992644
000020 fa 1a a8 bd e2 f8 c0 bc 20 12 0d bd ff 12 49 bd
       -0.0820827 -0.023556177 -0.034441113 -0.04909038
000030 3f e5 a8 3d f5 99 82 bc 37 82 b7 bd 22 1e a1 3b
       0.0824685 -0.015942553 -0.089603834 0.004916922
000040 e3 d2 33 3d 38 24 ee bc d8 0e 9a 3d 9c d1 71 bb
       0.04390229 -0.029070005 0.075223625 -0.0036898619
000050 03 9f 95 3c cd 2d a7 bd db dc 61 3c 2b da 3b bd
       0.0182643 -0.08163033 0.013785566 -0.045862358
000060 28 03 21 bd 94 ff 19 3d 0f ad 25 bd 5a 97 88 3d
       -0.03930965 0.037597254 -0.040448245 0.06669493
000070 03 4a b9 bc 10 43 85 bd f5 f7 4b bc 24 11 c3 bd
       -0.0226183 -0.06506932 -0.012449254 -0.09524754
000080 56 ea 5d bd 1d 5f 31 3d 32 04 07 3d 11 b5 8b bd
       -0.05417856 0.043303598 0.032962985 -0.06821645
000090 bc b1 9e bd a1 80 cb bd 3c d1 96 bd f4 1b a7 bc
       -0.07748744 -0.099366434 -0.07364127 -0.020399071
0000a0 e2 47 62 3d ee bb 9d bd 5b 9b bb bc 95 07 9a bd
       0.055244334 -0.0770186 -0.022901228 -0.075209774
0000b0 db ab a1 3c ff be 38 bd 4f 5f b8 bc 11 67 01 3c
       0.019735267 -0.045104023 -0.022506384 0.007898108
0000c0 8e e3 e2 3c c3 2b 98 bd 3d 20 ab bc 0c 85 b4 3a
       0.027696397 -0.07430222 -0.020889396 0.0013772561
0000d0 8d b4 60 bc 7b bf 09 bd d2 f7 84 bd e8 3d 81 3d
       -0.013714922 -0.033629876 -0.064925805 0.06310636
0000e0 8e f8 ad bb 2c 00 41 bd d8 04 ad bd be 9b 90 bd
       -0.005309171 -0.047119305 -0.084481895 -0.070609555
0000f0 85 89 55 bd 9a 70 00 bd fd 1f 64 bd 82 b0 10 bb
       -0.052133102 -0.031357385 -0.05569457 -0.0022077863
000100 b7 6a a0 bb 02 fb c5 bb 50 f2 c9 bd 71 c6 5f bd
       -0.004895534 -0.0060418854 -0.098606706 -0.054632608
000110 3d d6 60 3d 42 59 11 bc fa a7 a1 3c 04 32 6e bd
       0.054891814 -0.008871378 0.019733418 -0.058153167
000120 a6 1d 49 bc 99 d8 b0 3a ac c5 58 bc d0 43 70 bb
       -0.012275135 0.0013492286 -0.013230722 -0.0036661513
000130 3e cd 8f 3c 43 1a 74 bc 1a 6a 7d 3c 21 c2 da ba
       0.017553922 -0.014898839 0.015467191 -0.0016689935
000140 5a 0c af bd 91 bb 53 bd b1 9f 7b 3c de 9c 92 bd
       -0.08547278 -0.05169255 0.015357898 -0.07158826
000150 4e b3 c5 bc 0f 4c 2d 3c 6b 4d 96 bd db 33 f4 bd
       -0.02413335 0.010577216 -0.07338985 -0.11923953
000160 dd b2 ef bc af a8 96 3d ab a5 6d 3d b1 69 63 bd
       -0.029260093 0.073563926 0.05801932 -0.055520717
000170 9a 29 9e bd cb 05 50 bd 80 8a 44 3a 48 e6 86 bc
       -0.077227786 -0.050786775 0.0007497445 -0.016467229
000180 44 99 a9 bd 80 4f af bd 59 eb 37 3c 27 15 84 bd
       -0.08281186 -0.08560085 0.011225545 -0.06449347
000190 aa 04 48 3d 3d 31 f1 3c 46 ff b1 bc c6 fd 7c 3b
       0.048832573 0.029442424 -0.02172817 0.003860341
0001a0 b4 de b2 bd 08 47 f9 bc b0 d7 5f bc 67 d5 be bd
       -0.087338835 -0.030429378 -0.013662264 -0.09318047
0001b0 ab 75 01 3d 40 46 56 bd 08 d2 3d 3d ff 46 ac bd
       0.031606358 -0.05231309 0.04634288 -0.08411979
0001c0 28 88 9f bd eb 0b 33 3b 3c 1f b0 bb a0 cf 09 bd
       -0.077896416 0.0027320336 -0.005374817 -0.033645272
0001d0 54 ef b6 bd dc 4d 57 bd c2 64 ed bc 0a 99 92 3d
       -0.08932367 -0.052564487 -0.02897871 0.07158096
0001e0 6e 79 28 3d af 52 3e bd c1 aa 31 3d b5 cd ab bd
       0.04113143 -0.046465572 0.043375734 -0.08388845
0001f0 ac 2b d4 bc 48 01 2c bd 83 94 60 bd d6 6a 1d bc
       -0.02589973 -0.04199341 -0.05482913 -0.009607991
000200 21 3f 3b 3d 6f 25 b2 bd 72 2a 89 bd 9a 35 0f 3d
       0.0457145 -0.08698546 -0.06697549 0.034963228
000210 81 8c 59 bc 57 58 80 bd f4 b5 c9 bd 79 34 4b 3c
       -0.013278128 -0.062668495 -0.09849158 0.012402647
000220 05 19 3f 3d 16 ff 19 bd af 6b f8 bc 06 91 ec 3c
       0.04665472 -0.037596785 -0.030324785 0.028877746
000230 46 a3 ca bc 6a 12 2b bc 57 fb c2 3c 87 07 ad bd
       -0.024736058 -0.010441402 0.023801489 -0.08448701
000240 81 a2 5d 3d f0 10 a7 bd 1b 48 09 bd 10 8d 04 3d
       0.054110054 -0.081575274 -0.03351603 0.03236109
000250 c7 13 89 3d 1f 72 72 3d 25 c5 58 3d 6d 64 b8 bd
       0.06693225 0.059190866 0.052922387 -0.0900353
000260 a8 b7 70 bd 34 e3 5c 3d 6e 3c 70 bc 28 7a ed 3c
       -0.0587689 0.053927615 -0.014662845 0.028988913
000270 3b fd 60 bc ab cc 1b bd 89 4a 90 3c 16 51 62 3d
       -0.01373225 -0.038036983 0.017613666 0.05525311
000280 95 16 aa bc ee aa 25 3d 16 90 b7 3c f6 86 4f bd
       -0.020762721 0.040446214 0.022407573 -0.05066582
000290 dd 7d 1d 3d 76 1c b4 bd 37 bc ac bd 8f 2a c7 bd
       0.03845011 -0.08794491 -0.08434337 -0.09724914
0002a0 e9 13 73 3c c4 a4 a9 3c 17 d9 07 bd 23 64 c4 bc
       0.01483629 0.02070845 -0.033166017 -0.02397353
0002b0 21 3e cf bd bc 76 81 bd 17 87 23 bd a4 dd 33 3d
       -0.10119272 -0.06321475 -0.039923754 0.043912545
0002c0 7b 35 71 bd ec 7e 9d bc 00 00 92 bc 7e 2d af 3a
       -0.058888894 -0.01922556 -0.017822266 0.0013364998
0002d0 55 93 82 bd db be e5 3b da d2 86 3d 89 1f 3a 3d
       -0.063757576 0.007011277 0.065831855 0.04544023
0002e0 51 0e 3a 3d 96 88 a5 bd 1b 08 39 bd 7c 46 21 3d
       0.04542381 -0.08082692 -0.045173746 0.03937386
0002f0 28 3a 7c 3d 85 e7 e8 3c a3 6d c0 3b d8 ee ab bd
       0.0615789 0.02843071 0.0058724447 -0.08395165
000300 2e c7 19 3d d4 91 ac bd 09 fa b3 bc 29 1f 34 bd
       0.03754347 -0.08426252 -0.021969812 -0.04397503
000310 5d 2b 67 bd 1e f6 9a bd 49 f4 94 bd cb 78 84 bd
       -0.05643784 -0.075664744 -0.07273156 -0.06468352
000320 a9 05 67 bd 30 db 46 3d 8a ca 73 3a 71 b8 e4 bb
       -0.056401882 0.048548877 0.0009299895 -0.006979995
000330 4d 4b 8f bd d6 43 ef bd 9f 40 ff 3c 3b 41 f9 bc
       -0.06996784 -0.116828606 0.031158743 -0.030426612
000340 14 b5 24 3c 60 35 8e bd 97 ea c4 3a 95 88 66 ba
       0.010052938 -0.06943774 0.0015023527 -0.0008794156
000350 0b a4 79 3d a5 37 84 3d 6b d2 6f bd 32 e6 14 3d
       0.06094746 0.06455926 -0.05855028 0.036352344
000360 ff e1 d1 3c aa 41 74 3a 32 c4 77 bd a7 59 4a bd
       0.025620459 0.0009317646 -0.06048984 -0.049401905
000370 13 0a 16 bd 58 21 43 bb 63 90 b5 bd a2 05 7e bd
       -0.0366307 -0.0029774513 -0.0886543 -0.06201709
000380 b2 07 f3 3c 14 fd 2d 3d 98 6e ab bd db a4 c6 bd
       0.029666755 0.042477682 -0.083707035 -0.096994124
000390 92 e0 8c bd 21 64 16 3d 37 c0 2b 3c 96 cd 5b bc
       -0.06878771 0.036716584 0.010482839 -0.013415715
0003a0 85 c5 f5 bc 5a e6 09 bd e9 60 ce bc 88 ac 89 bd
       -0.030001411 -0.033666946 -0.025192695 -0.06722361
0003b0 08 e2 9f bd 5a b7 9d bd 8e ac bc bd a7 50 9d bd
       -0.07806784 -0.07700987 -0.092126 -0.07681399
0003c0 2f 94 9d bd 9f 8b 9c bc 51 9e 9d 3c aa 5b 07 3c
       -0.076942794 -0.019109545 0.01924053 0.0082616005
0003d0 e4 4b f1 bd 41 6b 8f bd b6 57 84 3d ad 66 19 3d
       -0.11782053 -0.07002879 0.06462042 0.037451435
0003e0 4e 4c c3 3b b6 41 0e bb fc ab 8c bd 98 ff a2 bd
       0.005960024 -0.0021706647 -0.06868741 -0.07958907
0003f0 bc e9 e4 bd 90 81 d4 bd b4 35 75 3c f1 0a 87 3c
       -0.11177394 -0.103762746 0.014966417 0.01648471
