checkpoint_actor.pth (torch_old, 174187 bytes, 10 tensors)

bn.weight f4 [256]
0	0x3f26eb8e	0.6520318
1	0x3f81b1df	1.0132407
2	0x3e91aa6b	0.2845033
3	0x3ee2044e	0.4414391
4	0x3f0f0e23	0.55880946
5	0x3f42f050	0.7614794
6	0x3f2641b1	0.6494399
7	0x3f8ab49a	1.0836365
8	0x3f61fc05	0.88275176
9	0x3f5565f1	0.83358675
10	0x3f037831	0.5135527
11	0x3f19e6cf	0.6011781
12	0x3e921da0	0.28538227
13	0x3eedea6a	0.46467906
14	0x3f196709	0.59922844
15	0x3f3698b5	0.7132676
16	0x3f65305d	0.8952692
17	0x3f7a201e	0.97705257
18	0x3f008113	0.5019695
19	0x3f0f4b73	0.559745
20	0x3f5634e3	0.8367445
21	0x3f83b9cc	1.0291076
22	0x3f21514c	0.63014674
23	0x3fa6c56b	1.3028997
24	0x3f458812	0.7716075
25	0x3f5ca845	0.8619426
26	0x3f965249	1.1743861
27	0x3ed3c075	0.4135777
28	0x3ea43c3b	0.32077202
29	0x3f1ceee6	0.6130203
30	0x3f0dccd5	0.55390674
31	0x3f9213c8	1.1412287
32	0x3f1a9567	0.6038422
33	0x3f0184c6	0.5059322
34	0x3f45f704	0.7733004
35	0x3eaff459	0.3436611
36	0x3f30c643	0.69052523
37	0x3f985a70	1.1902599
38	0x3f7f6650	0.9976549
39	0x3f837cef	1.0272502
40	0x3f3c52f1	0.7356406
41	0x3edd3cad	0.43210354
42	0x3f4eaaa4	0.80729127
43	0x3ecb4d8e	0.39707607
44	0x3ed58e4f	0.41710135
45	0x3f0ccb04	0.5499728
46	0x3f74d71a	0.9564072
47	0x3f7c8955	0.9864705
48	0x3f091dd9	0.5356117
49	0x3f319a93	0.69376487
50	0x3f777d2f	0.9667539
51	0x3fa1e950	1.2649326
52	0x3f77522a	0.9660975
53	0x3f62296d	0.8834446
54	0x3f865e31	1.0497495
55	0x3f27aecc	0.65501094
56	0x3f4bb41f	0.7957172
57	0x3ee6d7d9	0.45086554
58	0x3ec04c56	0.3755824
59	0x3eebbb95	0.4604155
60	0x3f61269e	0.8794955
61	0x3f503026	0.8132347
62	0x3f220ec3	0.63303775
63	0x3f4e5792	0.8060237
64	0x3f76b4a3	0.9636938
65	0x3f3df398	0.7419982
66	0x3f3ea37a	0.74468195
67	0x3f6c083e	0.92200077
68	0x3f825e9e	1.0185125
69	0x3f96e875	1.178969
70	0x3e70d7c0	0.23519802
71	0x3f00bd11	0.5028849
72	0x3f63691e	0.8883227
73	0x3f8e4e99	1.1117736
74	0x3f8f6129	1.1201526
75	0x3f8e58e9	1.1120883
76	0x3f821ea9	1.0165607
77	0x3ec77516	0.38956517
78	0x3f53bd50	0.8271074
79	0x3ed0c8ab	0.40778098
80	0x3e979c31	0.29611352
81	0x3f951959	1.164836
82	0x3f9a9529	1.207677
83	0x394838f8	0.00019094709
84	0x3f40276c	0.75060153
85	0x3f1ccb5e	0.61247814
86	0x3f242584	0.64119744
87	0x3f044194	0.51662564
88	0x3f662785	0.8990405
89	0x3efcba18	0.49360728
90	0x3f61e4d9	0.8823982
91	0x3f92f4b3	1.1480926
92	0x3f90bc01	1.1307374
93	0x3f73a2a5	0.9517005
94	0x3e5c4abe	0.21512887
95	0x3f099952	0.53749573
96	0x3f7472b1	0.95487505
97	0x3f75b84d	0.95984346
98	0x3eab35df	0.33439538
99	0x3f11bc68	0.5692811
100	0x3f937fa3	1.1523327
101	0x3f81ae22	1.0131266
102	0x3f109bb2	0.5648757
103	0x3f208c2a	0.62713873
104	0x3f0951ec	0.5364063
105	0x3f2795b6	0.65462816
106	0x3ed4cd8a	0.41563064
107	0x3ec0a2ab	0.37624106
108	0x3f1764cb	0.5913817
109	0x3f57468f	0.8409204
110	0x3f10e73c	0.56602836
111	0x3f92bdaf	1.1464137
112	0x3f2692ac	0.65067554
113	0x3f949e78	1.1610861
114	0x3f828008	1.0195322
115	0x3f0305f5	0.51180965
116	0x3f1699fc	0.5882871
117	0x3f5b3749	0.85631233
118	0x3f832393	1.0245231
119	0x3f5317f6	0.82458436
120	0x3f5fa57e	0.87361896
121	0x3f428329	0.75981385
122	0x3f0c4144	0.5478709
123	0x3f7d617a	0.9897686
124	0x3e8e581e	0.27801603
125	0x3f0ffb71	0.56243044
126	0x3f076405	0.5288699
127	0x3f08ba45	0.53409225
128	0x3f1cd684	0.61264825
129	0x3ec6d125	0.3883144
130	0x3f350cb6	0.7072252
131	0x3f4983ca	0.7871672
132	0x3ef4114a	0.4766944
133	0x3f45b440	0.77228165
134	0x3f834a71	1.0257093
135	0x3f5eb2a8	0.8699136
136	0x3f395b5c	0.7240503
137	0x3f37c937	0.71791404
138	0x3f51141a	0.816713
139	0x3f8d12f0	1.1021404
140	0x3fa496e6	1.285855
141	0x3f8975e6	1.0739105
142	0x3fa4b6b9	1.2868263
143	0x3f4a9227	0.7912926
144	0x3f04b114	0.518327
145	0x3eee66e6	0.4656288
146	0x3f9788ea	1.1838658
147	0x3f3b1959	0.7308555
148	0x3ee853d0	0.45376444
149	0x3ebea25a	0.3723324
150	0x3eae11a0	0.33997822
151	0x3ee47d87	0.4462702
152	0x3f50ffec	0.81640506
153	0x3f85aedd	1.0443989
154	0x3f784035	0.9697297
155	0x3e883291	0.2660108
156	0x3f86c195	1.0527827
157	0x3ebe51ab	0.37171683
158	0x3f1c933a	0.6116215
159	0x3f05e45b	0.5230157
160	0x3f2b18ee	0.66834915
161	0x3f1ae9eb	0.6051318
162	0x3ec86c69	0.3914521
163	0x3ebf8471	0.37405732
164	0x3f2d34f8	0.6765895
165	0x3f4e209c	0.8051851
166	0x3f0e5791	0.55602366
167	0x3f6620ee	0.89893997
168	0x3ea401f0	0.32032728
169	0x3f1f4e42	0.62228787
170	0x3f8e8b4e	1.1136262
171	0x3f1bd17c	0.6086652
172	0x3f91a96f	1.1379832
173	0x3f6df847	0.92956966
174	0x3f0a4f24	0.5402701
175	0x3f8a4711	1.0802938
176	0x3f2ae6f2	0.66758645
177	0x3ee93c32	0.45553738
178	0x3f8bc370	1.0919018
179	0x3ec4a0df	0.38403985
180	0x3f620875	0.88294154
181	0x3f19b769	0.60045487
182	0x3f815ddf	1.0106772
183	0x3f72c2ae	0.9482831
184	0x3f7f8610	0.9981394
185	0x3f81aabe	1.0130231
186	0x3f180d4f	0.5939531
187	0x3f15aa69	0.5846315
188	0x3edbeac3	0.42952546
189	0x3f6d3957	0.9266562
190	0x3f8f3ca1	1.1190377
191	0x3f83ec78	1.030654
192	0x3eca2572	0.39481694
193	0x3f42f015	0.76147586
194	0x3ebe9bae	0.3722815
195	0x3f1c82fa	0.61137354
196	0x3f1b138c	0.605767
197	0x3f5a562f	0.85287756
198	0x3edd4812	0.43219048
199	0x3f2b0517	0.6680464
200	0x3f3ce2cd	0.7378357
201	0x3f8dd008	1.1079111
202	0x3ed26c3f	0.4109821
203	0x3ee16a8e	0.44026607
204	0x3f17c45c	0.59283996
205	0x3fafec06	1.3743904
206	0x3f3f504c	0.747319
207	0x3f965cd0	1.1747074
208	0x3f5e8d8c	0.86934733
209	0x3f49b177	0.78786415
210	0x3f282ea3	0.6569616
211	0x3f1ccfee	0.61254776
212	0x3f34909d	0.7053316
213	0x3f127858	0.5721488
214	0x3f2f1a89	0.68399864
215	0x3f5fec93	0.8747036
216	0x3ed40efb	0.4141768
217	0x3f016e0b	0.5055854
218	0x3f89a8e1	1.0754663
219	0x3f01e08d	0.5073326
220	0x3f3f02f9	0.7461391
221	0x3f90036e	1.1251047
222	0x3f93c182	1.1543429
223	0x3f3d9ca6	0.7406715
224	0x3f174b04	0.5909884
225	0x3f7108fe	0.94154346
226	0x3f052260	0.5200558
227	0x3f34fe59	0.70700604
228	0x3f01aa5a	0.5065056
229	0x3f3041fe	0.68850696
230	0x3f4a969f	0.7913608
231	0x3f92c8e2	1.1467555
232	0x3f7201f8	0.94534254
233	0x3f98c0e4	1.1933866
234	0x3f8f59cb	1.1199278
235	0x3eca8d16	0.39560765
236	0x3f7cebac	0.98797107
237	0x3ed7d397	0.42153618
238	0x3f1985a4	0.59969544
239	0x3f583d3b	0.8446843
240	0x3f551a2b	0.83243054
241	0x3f8f2d70	1.1185741
242	0x3f286121	0.65773207
243	0x3f2b4b50	0.6691179
244	0x3f7f2909	0.9967199
245	0x3eac4aa8	0.33650708
246	0x3f998761	1.1994439
247	0x3ee01c1c	0.43771446
248	0x3f4dc21b	0.80374306
249	0x3f352c0d	0.7077034
250	0x3ed346fc	0.41265094
251	0x3f4724c9	0.77790505
252	0x3fae64d5	1.3624521
253	0x3f025bed	0.5092152
254	0x3e91c632	0.28471524
255	0x3f011a88	0.5043111

bn.bias f4 [256]
0	0xbdb2fe8e	-0.08739959
1	0x3d889d64	0.06670645
2	0x3dd7e07a	0.105408624
3	0x3d881902	0.06645395
4	0x3d8fe2eb	0.07025703
5	0x3d1d5aad	0.038416553
6	0x3d972373	0.07379808
7	0xbe335948	-0.17514527
8	0xbdb3aad3	-0.087728165
9	0x3de05f5c	0.10955688
10	0x3db7b6d3	0.08970418
11	0xbdad2398	-0.084540546
12	0x3dd3922b	0.10330614
13	0x3c07dbeb	0.008292179
14	0xbe00a4ff	-0.12562941
15	0x3b830431	0.0039983024
16	0x3d4c3bd4	0.049861744
17	0xbd3ec890	-0.04657799
18	0x3d02ebb7	0.031963076
19	0x3d20ad56	0.039227806
20	0x3c686e59	0.014186465
21	0x3d2ecf0b	0.04267792
22	0x3e0de5bd	0.1385717
23	0x3d9645f4	0.07337561
24	0x3d4d545a	0.050129272
25	0x3e286f4d	0.16448708
26	0xbe78799d	-0.24265142
27	0x3d0da415	0.03458031
28	0xbe7c5094	-0.24640113
29	0xbc74b359	-0.014935338
30	0x3dfba922	0.12288119
31	0x3d870f76	0.06594746
32	0xbdf596f9	-0.119916864
33	0xbe8a6806	-0.2703249
34	0x3da7df2a	0.08196862
35	0xbd9aa4f4	-0.075509936
36	0xbd1de450	-0.038547814
37	0x3e3f55ef	0.18685125
38	0xbe33e5cb	-0.17568128
39	0xbc0ee8c2	-0.008722486
40	0xbd79730d	-0.060900737
41	0x3d0e9335	0.034808356
42	0x3cc8611c	0.024460368
43	0xbe05bf84	-0.13061339
44	0xbd92b68c	-0.07163724
45	0x3db54da4	0.088526994
46	0x3e1bcbbc	0.15214437
47	0xbe5931b6	-0.2121037
48	0x3b7c4980	0.0038495958
49	0x3dc6fc9a	0.09716149
50	0x3d8b5ae3	0.06804445
51	0x3dde3c74	0.10851374
52	0xbd42dd26	-0.047574185
53	0xbcd34e3e	-0.025794145
54	0xbb30768a	-0.0026926124
55	0x3cc0bfb1	0.023528906
56	0x3d89171e	0.066938624
57	0x3d359e44	0.044340387
58	0xbe34628d	-0.17615719
59	0x3e3520aa	0.17688242
60	0x3de77c44	0.11302999
61	0x3cc42a8f	0.023946075
62	0xbc826f47	-0.015922202
63	0x3d8d3e7e	0.06896685
64	0x3b1a3823	0.0023531995
65	0xbd86ca74	-0.065815836
66	0x3e28ba85	0.16477402
67	0x3d011d43	0.031522047
68	0x3dfe7590	0.12424767
69	0x3ccca449	0.024980681
70	0xbd8fc2a2	-0.07019545
71	0xbe25470e	-0.16140386
72	0x3de8e885	0.113724746
73	0x3cf3f086	0.029777776
74	0x3ac2b8de	0.001485612
75	0xbcf17601	-0.029475214
76	0xbdd26d0c	-0.10274705
77	0x3d9b7bb0	0.07591951
78	0xbc982afa	-0.01857518
79	0xbdcd0e3d	-0.10012481
80	0xbd378900	-0.044808388
81	0x3e744134	0.23852998
82	0x3d640507	0.055668857
83	0xbaac7f3a	-0.0013160475
84	0xbdd87420	-0.10569024
85	0x3d2e1241	0.042497877
86	0x3db42151	0.08795417
87	0x3c679eb4	0.014136959
88	0xbdb73646	-0.08945899
89	0x3d8415ac	0.06449446
90	0x3e38094d	0.17972298
91	0xbc2fcf91	-0.01073064
92	0x3d95af68	0.07308847
93	0xbd7eb7c5	-0.062186975
94	0x3d8fcb38	0.07021183
95	0xbd2f3c7e	-0.0427823
96	0x3d86e7df	0.06587195
97	0xbc483c78	-0.012221448
98	0x3b6d377e	0.0036196406
99	0x3d8fa127	0.07013159
100	0xbdd96419	-0.10614795
101	0x3d1440aa	0.03619448
102	0xbdaa1a2f	-0.083057754
103	0x3b850a25	0.004060047
104	0x3ca3b113	0.019981897
105	0x3a36703d	0.0006959474
106	0x3c49a964	0.012308452
107	0xbc8b4fe2	-0.017005865
108	0x3db8be71	0.09020699
109	0x3de0dc69	0.1097954
110	0x3c49af2c	0.012309831
111	0x3c6dc28b	0.014511715
112	0x3cca160c	0.024668716
113	0xbd0905c5	-0.033452768
114	0x3d509f63	0.050933253
115	0x3e1e69b4	0.1547001
116	0xbd8b2f32	-0.06796111
117	0xbc686ea2	-0.014186533
118	0xbc99d8cd	-0.018780136
119	0x3e22d268	0.15900576
120	0xbd812c02	-0.06307222
121	0x3d922b33	0.07137146
122	0xbb9c496d	-0.004769495
123	0xbdc0e707	-0.09419065
124	0x3c0104ae	0.007874651
125	0xbda4ca20	-0.08046365
126	0x3d6423cc	0.0556982
127	0x3dabc1c1	0.08386565
128	0x3c5fef25	0.013667856
129	0x3c2cecea	0.010554532
130	0x3dcac9f8	0.09901804
131	0x3ddcbbba	0.107779935
132	0x3d6c74e5	0.057728667
133	0xbd10866e	-0.035284452
134	0x3d54b115	0.05192669
135	0x3dbf0150	0.09326422
136	0x3a41a0c8	0.0007386324
137	0xbc015776	-0.0078943875
138	0xbd3b7aa0	-0.04577124
139	0x3e1f1be7	0.15537988
140	0x3dd2e777	0.10298055
141	0xbe49a412	-0.19691494
142	0xbd1ae921	-0.037819985
143	0x3e7978f3	0.24362545
144	0x3d8d9056	0.069122955
145	0xbe7795fa	-0.24178305
146	0x3d3c480c	0.045967147
147	0xbd53d240	-0.051714182
148	0x3c54cbe2	0.012988063
149	0xbda1f3ea	-0.07907851
150	0x3db1cdff	0.08681869
151	0xbe139126	-0.14410838
152	0x3e1fe512	0.15614727
153	0x3ddb9c6b	0.10723194
154	0xbd8b19ca	-0.06792028
155	0x3d2b739c	0.0418583
156	0xbe6742b2	-0.22584036
157	0x3e1235cf	0.14278339
158	0x3d329c76	0.043606244
159	0x3c31fe67	0.010863877
160	0xbcd1fe6f	-0.025634019
161	0x3b940600	0.004517317
162	0xbe33e68f	-0.1756842
163	0x3cc24449	0.023714202
164	0x3d8199c7	0.06328159
165	0xbe133ee0	-0.14379454
166	0x3def3d78	0.11681646
167	0x3d850a9b	0.064961635
168	0xbd5a0e9e	-0.053236596
169	0x3ca868fd	0.020557875
170	0xbba2a200	-0.0049631596
171	0xbbc0d418	-0.0058846585
172	0xbc9f90f3	-0.019478297
173	0x3df3a47b	0.118966065
174	0xbc6890da	-0.014194692
175	0x3e20fc3f	0.15721224
176	0xbc8f8c1a	-0.01752286
177	0x3e48d82a	0.1961371
178	0xbdc1748d	-0.094460584
179	0x3db4edb2	0.08834399
180	0x3cb9f4f1	0.022699805
181	0x3c8664fc	0.016405575
182	0x3a8e9d74	0.0010880665
183	0x3d51f6e9	0.051260862
184	0x3e219c93	0.15782385
185	0x3e064cf1	0.13115288
186	0xbdd535f1	-0.10410679
187	0x3e57f605	0.21089943
188	0xbd6ab5f9	-0.05730245
189	0x3de6d640	0.11271334
190	0x3e107247	0.14106093
191	0x3d76b25b	0.060228687
192	0x3c9fb3b6	0.019494873
193	0xbc92f91d	-0.017941052
194	0x3d7592a0	0.059954286
195	0x3d12cb90	0.035838664
196	0x3cc3abe1	0.02388567
197	0xbc5e4cb0	-0.013568088
198	0x3de2c0e8	0.1107195
199	0x3e29060f	0.16506217
200	0x3e109615	0.14119752
201	0x3d8c7f15	0.068601765
202	0xbd1e88a6	-0.038704537
203	0x3dca0209	0.098636694
204	0xbda9d79d	-0.08293078
205	0x3d17365b	0.03691707
206	0xbc07665a	-0.008264149
207	0xbbaae8fc	-0.005215762
208	0x3cbacaea	0.022801835
209	0x3e1fce7e	0.15606114
210	0x3db9a1cd	0.09064064
211	0x3d93e25e	0.072209105
212	0x3e14b600	0.14522552
213	0xbc8a9449	-0.016916411
214	0x3db5cfc5	0.088775195
215	0x3ddb024f	0.106938
216	0x3dfb319d	0.12265322
217	0x3c3bebaa	0.011469761
218	0x3d3d7318	0.04625234
219	0xbdf4b6e0	-0.11948943
220	0xbdd65b5a	-0.10466643
221	0x3d9f1afb	0.07768818
222	0xbe7eec2a	-0.24894777
223	0x3d727c21	0.05920041
224	0xbd88f783	-0.06687834
225	0x3dc6eb20	0.09712815
226	0x3e09e466	0.13466033
227	0xbd2913c9	-0.041278634
228	0x3d27b671	0.040945474
229	0xbe5a5fa0	-0.2132554
230	0xbc690d01	-0.014224292
231	0xbddcb9cd	-0.10777626
232	0x3da49310	0.080358624
233	0xbc6677ca	-0.014066646
234	0x3da3e605	0.08002857
235	0xbc0912fc	-0.008366343
236	0xbdc6d5f0	-0.09708774
237	0x3e052a37	0.13004385
238	0xbd9cb4f7	-0.07651704
239	0xbd4c7b80	-0.049922466
240	0xbd42538a	-0.04744295
241	0x3d977f16	0.073972866
242	0xbd4a5268	-0.049394995
243	0x3d77ee7e	0.06053018
244	0x3d834b4a	0.064108446
245	0x3d72394d	0.059136678
246	0x3d78a0b0	0.06070012
247	0xbd6020ff	-0.054718968
248	0x3d83c5c7	0.064342074
249	0xbd9ea642	-0.07746555
250	0x3de749f1	0.112934
251	0x3e199f0b	0.15002076
252	0x3d20b7a9	0.039237652
253	0xbd917b6c	-0.07103619
254	0x3da6aa2b	0.08137926
255	0x3e129372	0.14314058

bn.running_mean f4 [256]
0	0x3d942c2a	0.07234986
1	0x3e39c7fe	0.18142697
2	0x3c868ac7	0.016423596
3	0xbe1c285f	-0.15249775
4	0xbdef737a	-0.11691947
5	0x3e906a49	0.2820609
6	0xbf216326	-0.63041914
7	0xbf16f479	-0.58966786
8	0xbebdc61e	-0.37065214
9	0x3d04dba0	0.032436013
10	0x3eebad7f	0.46030805
11	0x3ece5b02	0.40303808
12	0x3f382fac	0.7194774
13	0x3e363988	0.17795384
14	0xbdff4059	-0.12463445
15	0x3e9707c6	0.29498118
16	0x3e6ff158	0.23431909
17	0xbf16e9ce	-0.5895051
18	0xbd36b3dc	-0.04460512
19	0xbeb1addc	-0.34702957
20	0xbe4deb99	-0.20109405
21	0x3ef1bab9	0.4721277
22	0xbe5c0b9b	-0.21488802
23	0x3e8dab72	0.27669865
24	0xbda24fbf	-0.079253666
25	0x3ed64a9a	0.4185379
26	0xbef0efbd	-0.47057906
27	0x3e434060	0.19067526
28	0xbe2b47d2	-0.16726616
29	0xbf359299	-0.70926815
30	0x3e112d12	0.14177349
31	0x3e1ea240	0.15491581
32	0xbf5093a5	-0.8147529
33	0xbed4370b	-0.41448244
34	0x3e6edd12	0.23326519
35	0xbeadcd6b	-0.33945784
36	0x3eb1d93d	0.34736052
37	0x3f0e3b7b	0.5555951
38	0xbf02ac78	-0.51044416
39	0x3df9ad8a	0.12191303
40	0xbeabb43a	-0.3353594
41	0xbf2e5464	-0.6809752
42	0xbe4c2044	-0.19934183
43	0xbec6d27c	-0.38832462
44	0xbdc61f9c	-0.09673998
45	0x3e5ed07a	0.21759215
46	0x3d80af11	0.06283391
47	0xbd98431d	-0.07434676
48	0xbd6cb0aa	-0.057785667
49	0x3e675ca9	0.22593941
50	0x3e985835	0.29754797
51	0x3ed5ba83	0.4174386
52	0xbd1e1dff	-0.038602825
53	0x3dd04755	0.101698555
54	0x3ece322b	0.4027265
55	0x3ea4e485	0.32205597
56	0x3ebdd086	0.37073153
57	0x3eb054a9	0.3443959
58	0x3bad31e3	0.005285488
59	0x3e539b0a	0.20664611
60	0x3f5580f4	0.8339989
61	0x3eb56283	0.3542672
62	0xbe64d08d	-0.22345181
63	0xbd42b023	-0.04753126
64	0x3debf75e	0.11521791
65	0xbe8891d2	-0.26673752
66	0x3efe82e7	0.49709246
67	0x3f05952b	0.5218074
68	0x3f04125a	0.515905
69	0x3e23f9d6	0.16013274
70	0xbc966ff7	-0.018363936
71	0xbf211fe3	-0.6293928
72	0x3eda70c8	0.4266417
73	0xbf241269	-0.6409059
74	0x3cad1f15	0.021132985
75	0xbea8f2ae	-0.3299765
76	0x3e8b2e4e	0.27183765
77	0x3edffded	0.43748417
78	0x3e69a558	0.2281698
79	0xbe83cd78	-0.25742698
80	0xbf0ece33	-0.55783385
81	0x3f0848d4	0.53236127
82	0x3d0686a8	0.032843262
83	0xbda5c295	-0.08093754
84	0xbf19b4e2	-0.6004163
85	0x3c7ec529	0.015549936
86	0x3e4f2f11	0.20232798
87	0x3c2ba1d2	0.010475593
88	0xbda5fd1b	-0.08104917
89	0x3ea9c99c	0.33161628
90	0x3e57de01	0.21080782
91	0x3f015ee4	0.50535417
92	0x3ef0c3a8	0.47024274
93	0xbe7db04c	-0.24774283
94	0x3e175190	0.14777207
95	0xbe8cfa75	-0.27534834
96	0x3e264d45	0.16240413
97	0xbc93e9f1	-0.018055888
98	0x3edfb502	0.43692786
99	0xbdedf344	-0.11618665
100	0x3e93050f	0.28714797
101	0x3c938b4e	0.018010762
102	0xbe88642d	-0.26638928
103	0xbe436427	-0.19081174
104	0xbe39f79d	-0.18160863
105	0x3ea5f0c7	0.3241026
106	0x3ecb417b	0.39698395
107	0xbe0fec03	-0.14054875
108	0x3e2c6609	0.16835798
109	0x3d9c8626	0.07642774
110	0xbea10a12	-0.31452996
111	0x3d8415ad	0.06449447
112	0xbf008014	-0.5019543
113	0x3ec05935	0.3756806
114	0x3f32499e	0.6964358
115	0x3cbdc0a6	0.023163151
116	0xbe5cae5f	-0.21550892
117	0x3e748da8	0.23882163
118	0x3cdca696	0.026934903
119	0x3eaba2db	0.33522686
120	0x3f3c24ad	0.7349346
121	0xbdf51c51	-0.119682916
122	0x3de99ff1	0.114074595
123	0x3e4a07da	0.19729558
124	0x3e21b0be	0.15790078
125	0xbda44acd	-0.080220796
126	0x3d601ec0	0.054716825
127	0x3da80e33	0.08205833
128	0xbe3d32a1	-0.18476345
129	0x3e0d64a5	0.13807924
130	0x3e7ba2a8	0.24573767
131	0x3f82f58b	1.0231184
132	0xbe31cc1a	-0.17363015
133	0xbee2c3af	-0.4428992
134	0xbf027303	-0.50956744
135	0xbce58992	-0.0280197
136	0xbf110532	-0.5664855
137	0xbea4699a	-0.32111818
138	0xbcabc190	-0.020966321
139	0x3e67fbf1	0.22654702
140	0x3e57d7ff	0.2107849
141	0xbedc42fa	-0.4301985
142	0x3e37385f	0.17892598
143	0x3e5ac6dc	0.21364921
144	0xbe5f628c	-0.21814936
145	0xbf14d2ad	-0.58133966
146	0x3e2c1811	0.16806056
147	0xbef865b5	-0.48515096
148	0x3da6f3cb	0.081519686
149	0xbefa274b	-0.48858103
150	0xbef474a4	-0.4774524
151	0xbf08320e	-0.5320138
152	0x3f07b116	0.53004587
153	0x3bdf9dca	0.00682423
154	0xbf4dccaa	-0.8039042
155	0x3e989321	0.2979975
156	0xbed7b321	-0.42128852
157	0x3ed90845	0.42389122
158	0xbec9f61b	-0.39445576
159	0xbe5bf4e4	-0.21480137
160	0xbf998637	-1.1994084
161	0xbdcfd97b	-0.10148903
162	0x3e6d44eb	0.23170821
163	0xbced81aa	-0.028992493
164	0x3ddba987	0.10725694
165	0xbd78d7d2	-0.060752697
166	0x3ebbbc23	0.36666974
167	0xbf059312	-0.52177536
168	0xbe84e5bd	-0.25956526
169	0x3e6a1622	0.22860005
170	0xbea2911c	-0.31751335
171	0xbe11a9ae	-0.14224884
172	0x3ea73900	0.32660675
173	0x3b1e46ab	0.0024151008
174	0x3df5d483	0.12003424
175	0x3f5adf40	0.854969
176	0x3d1544e6	0.03644266
177	0x3de59b30	0.1121124
178	0x3e6ec55d	0.23317476
179	0x3f06da44	0.52676797
180	0xbe165a45	-0.14682873
181	0xbea11666	-0.314624
182	0xbe91fd8a	-0.28513747
183	0xbe74075f	-0.23830937
184	0xbed19334	-0.4093262
185	0xbda4447f	-0.08020877
186	0xbe8ed1c2	-0.27894408
187	0x3ec84b9b	0.39120182
188	0xbf49cd36	-0.7882875
189	0x3e178a23	0.14798789
190	0x3f30485d	0.6886042
191	0x3cbb93d6	0.022897642
192	0xbec80688	-0.39067483
193	0x3e7391f4	0.23786145
194	0xbdfcca01	-0.12343217
195	0xbe99aa0f	-0.30012557
196	0x3ddfa6f5	0.109205164
197	0x3f227446	0.6345867
198	0xbdfd4a38	-0.12367672
199	0xbd36cdf4	-0.044630006
200	0xbe3a775c	-0.18209594
201	0xbea183b9	-0.3154581
202	0x3e886652	0.26640564
203	0xbdfe7a99	-0.124257274
204	0xbf189674	-0.59604573
205	0xbe62017d	-0.2207088
206	0xbedf8610	-0.4365697
207	0xbd47db49	-0.04879311
208	0xbe263919	-0.16232719
209	0xbbf662fb	-0.0075191236
210	0x3ef9228a	0.48659164
211	0x3e92d612	0.28678948
212	0x3dc17891	0.09446824
213	0x3e114564	0.14186627
214	0x3ebcc468	0.36868596
215	0x3e6ad95a	0.22934476
216	0xbd3a3c30	-0.045467556
217	0xbedb0725	-0.42778888
218	0xbed3f18a	-0.41395217
219	0xbf47a23b	-0.7798192
220	0xbe405712	-0.18783215
221	0xbee4e791	-0.4470792
222	0xbf0c7b85	-0.54875976
223	0x3e920431	0.28518823
224	0x3e39539d	0.18098302
225	0x3f2fa9e0	0.68618584
226	0xbd7c7ac0	-0.0616405
227	0xbe8c07ba	-0.27349645
228	0xbeab7f5f	-0.33495614
229	0xbf2a3b6c	-0.6649692
230	0x3cf9146f	0.030405251
231	0xbef48643	-0.47758684
232	0xbe7f6cd0	-0.24943852
233	0xbf39dfef	-0.7260732
234	0xbd97a3c3	-0.07404282
235	0xbe50eb55	-0.20402272
236	0xbf52d89a	-0.8236176
237	0x3d32ba16	0.043634497
238	0xbd5478e7	-0.051873114
239	0xbf150aa0	-0.5821934
240	0xbf13344d	-0.5750168
241	0x3dbdb8f0	0.0926379
242	0xbb5b0eff	-0.0033425686
243	0x3e964094	0.29346144
244	0x3da5dab2	0.080983534
245	0x3e8109cd	0.2520279
246	0x3ecadc12	0.39621025
247	0x3ddf8078	0.10913175
248	0xbec2236a	-0.37917644
249	0xbe3c1dba	-0.18370715
250	0xbe34562a	-0.17610994
251	0x3ef66314	0.48122466
252	0x3eb8cace	0.36092228
253	0xbf066a23	-0.525057
254	0xbf15537c	-0.5833051
255	0xbe93700a	-0.28796417

bn.running_var f4 [256]
0	0x3f0b5e6a	0.5444094
1	0x3e4ed3f5	0.20198043
2	0x3f57ec40	0.84344864
3	0x3cf966dc	0.030444555
4	0x3da9d7db	0.08293124
5	0x3f6c018d	0.92189866
6	0x3e38835c	0.1801886
7	0x3e8564d9	0.26053503
8	0x3e349a24	0.17636925
9	0x3e736b0a	0.23771301
10	0x3e396fb3	0.18109016
11	0x3e203cd2	0.15648201
12	0x3eccd97e	0.40009683
13	0x3e924b83	0.28573236
14	0x3d2f3d30	0.042782962
15	0x3eae7d70	0.34080076
16	0x3e2e7f66	0.17040786
17	0x3e4ba9f4	0.1988905
18	0x3e1675e6	0.14693412
19	0x3e10b3ca	0.14131084
20	0x3f791864	0.9730284
21	0x3f0615c8	0.52376986
22	0x3dd442de	0.103643164
23	0x3d145575	0.03621431
24	0x3e64f9b1	0.22360875
25	0x3e119719	0.14217795
26	0x3eb603a4	0.35549653
27	0x3e040ad1	0.12894751
28	0x3fad9560	1.3561211
29	0x3e787d7e	0.24266621
30	0x3f277adf	0.6542186
31	0x3e211398	0.1573013
32	0x3dfe01e9	0.12402708
33	0x3e7f4e25	0.24932154
34	0x3d440859	0.047859523
35	0x3f241e10	0.6410837
36	0x3dad8f86	0.084746405
37	0x3d0a0e4b	0.033705037
38	0x3ec8ee78	0.39244437
39	0x3eb2f354	0.3495127
40	0x3fb284c0	1.3946762
41	0x3e06c181	0.13159753
42	0x3e687f15	0.22704728
43	0x3dce341b	0.10068532
44	0x3e03fad7	0.12888657
45	0x3e8ec70b	0.27886233
46	0x3eab57c0	0.33465385
47	0x3ee10683	0.4395028
48	0x3d800090	0.06250107
49	0x3f0bf3fe	0.5466918
50	0x3e9111c9	0.28333881
51	0x3dfe5312	0.12418188
52	0x3f3eb7b6	0.7449907
53	0x3e2800c0	0.16406536
54	0x3e0ba96e	0.13638851
55	0x3dd5f05d	0.10446236
56	0x3df0e0c7	0.11761623
57	0x3f086e53	0.5329334
58	0x3e9425fe	0.28935236
59	0x3e4cac2b	0.19987552
60	0x3efa84ce	0.48929447
61	0x3ebbbc34	0.36667025
62	0x3cefd38d	0.02927568
63	0x3ec411cf	0.38294837
64	0x3e6fbd2c	0.23412007
65	0x3e85b469	0.26114205
66	0x3e85b078	0.26111197
67	0x3e15dc77	0.14634882
68	0x3ee0f9e2	0.43940645
69	0x3e498636	0.19680104
70	0x3e39818a	0.18115821
71	0x3f1fbb28	0.6239495
72	0x3f12c8d4	0.5733769
73	0x3ee5af52	0.4486032
74	0x3e8c68ec	0.274238
75	0x3ec330e0	0.38123226
76	0x3da3da11	0.08000577
77	0x3e61ee1a	0.22063485
78	0x3ee4324a	0.44569618
79	0x3e0d34f2	0.13789728
80	0x3eb6bb60	0.3568983
81	0x3dc79402	0.09745027
82	0x3d363438	0.044483393
83	0x3e1436b2	0.1447399
84	0x3e9500e6	0.29102248
85	0x3d147a61	0.036249522
86	0x3e81c6d0	0.25346994
87	0x3da92b0f	0.08260166
88	0x3e83b8f1	0.25727037
89	0x3d63d7b8	0.055625647
90	0x3f7b6b68	0.98210764
91	0x3d11d9a0	0.035607934
92	0x3d935f55	0.071959175
93	0x3e939a3a	0.28828603
94	0x3ee9bf40	0.45653725
95	0x3e62330c	0.22089785
96	0x3e80df40	0.25170326
97	0x3e3fc25a	0.18726483
98	0x3deaca81	0.11464406
99	0x3db7d40a	0.0897599
100	0x3e80b55e	0.25138372
101	0x3e0149a6	0.12625751
102	0x3da2c574	0.079478174
103	0x3dc2f5c8	0.09519535
104	0x3d8ad7ab	0.06779417
105	0x3f29cc4a	0.66327345
106	0x3cde3e7e	0.027129408
107	0x3f9e763b	1.2379831
108	0x3e1b89dc	0.15189308
109	0x3e850fcc	0.25988615
110	0x3e01bec0	0.12670422
111	0x3d0db6f8	0.03459832
112	0x3d753ddf	0.059873458
113	0x3eb6729d	0.35634318
114	0x3e6c2776	0.23061928
115	0x3dc91ede	0.098203406
116	0x3d8abaf0	0.06773937
117	0x3e7135f3	0.23555736
118	0x3e2c2946	0.1681262
119	0x3d74274d	0.059607793
120	0x3e09e4af	0.13466142
121	0x3e82ce23	0.25547895
122	0x3f03a1be	0.51418674
123	0x3dc90ab3	0.09816494
124	0x3de5e28e	0.112248525
125	0x3da96ba2	0.082724825
126	0x3f41f323	0.7576162
127	0x3e19ee1e	0.15032241
128	0x3eea5ec9	0.4577544
129	0x3e473c91	0.19456698
130	0x3f45e054	0.7729542
131	0x3e6138aa	0.21994272
132	0x3e3a6805	0.18203743
133	0x3dcb5c68	0.099297345
134	0x3f346a69	0.7047487
135	0x3db3baa9	0.08775837
136	0x3e462dbf	0.19353388
137	0x3e0943ba	0.13404742
138	0x3e904ee0	0.28185177
139	0x3d86160b	0.06547173
140	0x3e17b6de	0.14815852
141	0x3e857845	0.2606832
142	0x3e8f9f02	0.28051
143	0x3f2a74b8	0.6658435
144	0x3e3ad365	0.18244703
145	0x3e726691	0.23671938
146	0x3d533fb8	0.05157444
147	0x3e3c3614	0.18380004
148	0x3f410f5a	0.7541405
149	0x3db80018	0.08984393
150	0x3daaf844	0.08348134
151	0x3d98c4dd	0.07459424
152	0x3ce6a225	0.028153488
153	0x3d9293c7	0.071570925
154	0x3e3754b4	0.17903405
155	0x3eadadc5	0.33921638
156	0x3dd4a7b3	0.103835486
157	0x3f236e9e	0.63840663
158	0x3e4b2020	0.19836473
159	0x3e6b4704	0.22976309
160	0x3da4c8c8	0.080461085
161	0x3e5f26be	0.21792123
162	0x3db856b3	0.090009116
163	0x3de2b4ee	0.11069666
164	0x3e589c8a	0.21153465
165	0x3e5f7b69	0.21824421
166	0x3e1864ed	0.1488225
167	0x3ecec2dd	0.40383044
168	0x3e8e6820	0.27813816
169	0x3e3ad8b7	0.18246733
170	0x3ebcbba9	0.36861923
171	0x3ea51d27	0.32248804
172	0x3e8206a2	0.25395685
173	0x3e2082d0	0.15674901
174	0x3de4afb8	0.11166328
175	0x3ee0f7fe	0.43939203
176	0x3dd96222	0.106144205
177	0x3e808e9c	0.25108802
178	0x3e45a766	0.19302139
179	0x3e2f96d9	0.17147388
180	0x3e26b05f	0.16278218
181	0x3debb5dc	0.11509296
182	0x3e63e445	0.22255047
183	0x3e2ac23a	0.16675654
184	0x3f8a31ad	1.079641
185	0x3da43497	0.08017843
186	0x3dd4274c	0.10359058
187	0x3f25315e	0.64528453
188	0x3e438214	0.1909259
189	0x3dad843d	0.08472488
190	0x3e98bae8	0.29830098
191	0x3e8ca80a	0.27471954
192	0x3f36bf3f	0.7138557
193	0x3e746c90	0.23869538
194	0x3ee723e6	0.45144576
195	0x3e737aab	0.23777263
196	0x3d91cf21	0.07119585
197	0x3ea2a804	0.3176881
198	0x3e9bef0f	0.30455825
199	0x3e861520	0.26187992
200	0x3e343fcb	0.1760246
201	0x3e9a05f4	0.30082667
202	0x3f0ba3af	0.54546636
203	0x3e1d8eea	0.15386549
204	0x3f320736	0.69542253
205	0x3e297521	0.16548587
206	0x3e1565f0	0.14589667
207	0x3f170693	0.58994406
208	0x3d73388c	0.0593801
209	0x3e278289	0.16358389
210	0x3e72067a	0.23635283
211	0x3f0963c6	0.5366787
212	0x3e7eedac	0.24895352
213	0x3e7e1adf	0.24814938
214	0x3e4afc07	0.19822703
215	0x3e858629	0.2607892
216	0x3db2459d	0.08704684
217	0x3defb9fc	0.117053956
218	0x3eae5071	0.34045747
219	0x3d9cb5eb	0.076518856
220	0x3f89fa87	1.077958
221	0x3e8759f4	0.26435816
222	0x3e36a5da	0.17836705
223	0x3d975ea0	0.07391095
224	0x3db8c94c	0.09022769
225	0x3edd8ed6	0.43273038
226	0x3e0f6e6f	0.14006971
227	0x3d959013	0.073028706
228	0x3e9a1e28	0.30101132
229	0x3eea39e8	0.45747304
230	0x3ec15b3f	0.37764928
231	0x3ddd7e7c	0.108151406
232	0x3ca82a61	0.02052802
233	0x3e18196b	0.14853446
234	0x3ea2e7f5	0.31817594
235	0x3e93a78e	0.28838772
236	0x3f0bf90a	0.5467688
237	0x3e05455e	0.13014743
238	0x3e56944b	0.20955007
239	0x3ee72ca8	0.45151258
240	0x3f12c8c7	0.5733761
241	0x3d6132eb	0.0549802
242	0x3f36dddc	0.7143228
243	0x3ea4a418	0.32156444
244	0x3dd09a50	0.10185683
245	0x3da7c210	0.08191311
246	0x3e826e1d	0.25474635
247	0x3ea45148	0.32093263
248	0x3f7e5037	0.9934115
249	0x3de45c0c	0.11150369
250	0x3f6e95f8	0.93197584
251	0x3e0dce45	0.13848217
252	0x3e452b2c	0.1925475
253	0x3f185da4	0.59517884
254	0x3e982726	0.29717368
255	0x3f147086	0.579842

fc1.weight f4 [256, 33]
0	0xb92176be	-0.00015398391
1	0x3d40eaf5	0.047099072
2	0xbb0ab7e6	-0.002116674
3	0xbd0c7acf	-0.034296807
4	0xbdee60ee	-0.116395816
5	0xbc81f94c	-0.015865944
6	0x3bb7a860	0.0056047887
7	0x3d119db3	0.035550784
8	0x3d631883	0.055443298
9	0xbcc82fbb	-0.024436822
10	0x3d81c59c	0.06336519
11	0xbe051501	-0.12996294
12	0x3c275754	0.010213692
13	0xbd973acc	-0.073842615
14	0xbd85d2b5	-0.0653433
15	0xbd67b2a7	-0.05656686
16	0xbda7be26	-0.08190565
17	0x3d03ab12	0.032145567
18	0xbd8362f4	-0.06415358
19	0xbd451f23	-0.048125397
20	0x3c7aca5e	0.015307037
21	0xbd4acbd7	-0.049510803
22	0x3d13ef21	0.036116723
23	0x3cf63ae6	0.030057382
24	0xbd5bbd53	-0.05364735
25	0xbd87af84	-0.06625274
26	0x3d8acd53	0.06777444
27	0x3c83c8cf	0.016086964
28	0xbd972257	-0.07379597
29	0xbd2002da	-0.03906522
30	0x3c92f175	0.017937401
31	0xbd18b214	-0.037279204
32	0x3b317056	0.0027075014
33	0xbd8ad6f9	-0.06779284
34	0x3a84e153	0.0010137953
35	0x3d3aef52	0.04563839
36	0xbb1fd7d0	-0.002439011
37	0xba781d52	-0.0009464818
38	0xbc4bc446	-0.012436932
39	0x3ba3dc77	0.0050006467
40	0x3cd85094	0.02640561
41	0xba5337d3	-0.00080573297
42	0xbd4b1ead	-0.0495898
43	0x3ce2c36f	0.02768108
44	0x3c8a12a3	0.01685459
45	0xbcb48aca	-0.022038836
46	0x3d7065bf	0.058690783
47	0xbd1dee15	-0.03855713
48	0xbdba1289	-0.090855666
49	0xbb93e150	-0.0045129433
50	0x3ca7017c	0.02038645
51	0xbc5ca9ca	-0.013468215
52	0x3b651a7b	0.003495841
53	0xbc8379a3	-0.016049212
54	0xbce14e83	-0.027503258
55	0xbc8badb2	-0.017050598
56	0x3c7303c5	0.014832442
57	0xbc259f25	-0.010108744
58	0xbc2786d1	-0.010225014
59	0xbcfa1dd1	-0.030531796
60	0xbd431a69	-0.04763261
61	0xbc633dcb	-0.013869713
62	0x3cb95f60	0.022628486
63	0x3d441ab1	0.047877017
64	0xbc7b8c58	-0.015353285
65	0x3e97ba76	0.29634446
66	0xbd8bc72f	-0.06825101
67	0x3d87526e	0.06607519
68	0xbca71179	-0.020394074
69	0xbd87ebf0	-0.066367984
70	0xbd5ba847	-0.05362728
71	0x39cf8ee0	0.00039588567
72	0xbc164801	-0.0091724405
73	0x3c80b651	0.015711935
74	0x3d5fa53e	0.054600947
75	0x3d968319	0.07349224
76	0xbd1b953a	-0.03798411
77	0xbc9088cf	-0.01764336
78	0xbca01e65	-0.019545743
79	0xb952433a	-0.00020052204
80	0xbd836474	-0.06415644
81	0xbd94979c	-0.0725548
82	0x3c237141	0.009975732
83	0x3da5967e	0.08085345
84	0xbc0dd7e0	-0.008657426
85	0xbc857eb3	-0.016295766
86	0x3cfd5637	0.0309249
87	0x3b61463b	0.0034374136
88	0x3d030f35	0.031996924
89	0xbc45a273	-0.012062657
90	0xbcd5626f	-0.026047913
91	0xbd1f142f	-0.038837608
92	0xbdad94a7	-0.08475619
93	0xbd1dc869	-0.038521204
94	0xbd53288d	-0.051552344
95	0x3c433c50	0.011916235
96	0xbd437b15	-0.047724802
97	0xbd6ec2f8	-0.058291405
98	0x3d087f35	0.03332444
99	0x3da04572	0.07825746
100	0xbdce6ccf	-0.10079347
101	0x3dc61a1a	0.09672947
102	0xbc1f1f6f	-0.009712084
103	0xbd9d3549	-0.07676179
104	0x3c800fdb	0.01563256
105	0xbd8f7f7c	-0.070067376
106	0x3d8802c9	0.06641156
107	0x3d8fa599	0.07014007
108	0x3c6cd1cc	0.014454316
109	0xbc881412	-0.016611133
110	0x3d16e439	0.036838744
111	0x3d8accd0	0.06777346
112	0xbd3b085d	-0.045662273
113	0x3dd53ad7	0.104116134
114	0xbde99c40	-0.114067554
115	0xbc37c267	-0.011215783
116	0xbb62a610	-0.0034583844
117	0xbc0289fc	-0.007967468
118	0x3ca5e126	0.02024896
119	0xbcb6ea6e	-0.022328582
120	0x3c933c5f	0.017973123
121	0xbc3a74e2	-0.011380406
122	0x3b46ab7a	0.003031461
123	0xbcc0c78b	-0.02353265
124	0x3c871044	0.016487248
125	0x3ce91fb4	0.0284575
126	0xbd272054	-0.040802315
127	0x3d6f866b	0.0584778
128	0xbd1b69a2	-0.037942536
129	0x3c07df09	0.008292922
130	0x3d5e79e2	0.054315455
131	0x3d413f55	0.04717954
132	0x3db3529b	0.0875599
133	0x3e20e09a	0.15710679
134	0xbe0d8d7b	-0.13823502
135	0xbd222cbb	-0.03959344
136	0xbbf35c43	-0.00742677
137	0x3d7723c9	0.06033686
138	0xbc172fdd	-0.00922772
139	0x3cd4dea0	0.025985062
140	0xbd8823f4	-0.066474825
141	0xbbf9afc4	-0.00761983
142	0xbd1f0d8c	-0.03883128
143	0xbc1c8e9d	-0.009555486
144	0xbcdf47ed	-0.027255977
145	0x3c283a7c	0.01026785
146	0xbdbec430	-0.093147635
147	0xbaaaa33c	-0.0013018618
148	0xbc37438e	-0.01118554
149	0xbabea4ab	-0.0014544924
150	0x3c0f300b	0.008739482
151	0x3b877270	0.004133515
152	0x3b9a03dd	0.0047001676
153	0x3cd5dbce	0.026105788
154	0x3bdd21d9	0.0067484197
155	0xbcabe893	-0.020984923
156	0xbcd35b11	-0.02580026
157	0xbc4b7882	-0.012418868
158	0x3a0ce25e	0.00053743075
159	0xbd393163	-0.045213114
160	0x3d947473	0.072487734
161	0xbc924098	-0.017853066
162	0x3c94280e	0.018085506
163	0x3d053b16	0.032527052
164	0x3c96ac46	0.018392693
165	0x3e018da0	0.12651682
166	0xbd174af5	-0.03693672
167	0xbbd3b01b	-0.0064602024
168	0xbc431709	-0.0119073475
169	0x3ca18b97	0.019719882
170	0x3d4ade56	0.049528442
171	0xbdbc15e4	-0.09183863
172	0xbcba4157	-0.022736235
173	0xbd8951ee	-0.0670508
174	0x3c47b672	0.012189494
175	0x3d9b9154	0.075960785
176	0x3d89300c	0.06698617
177	0xbd172c81	-0.036907677
178	0x3da5cef3	0.08096113
179	0xbda2a3cd	-0.07941399
180	0xbda70e1e	-0.081569895
181	0x3a7b0c1a	0.00095766934
182	0xbb5daaf8	-0.003382383
183	0x3d8f8a74	0.0700883
184	0x3da3c933	0.0799736
185	0xbda339d7	-0.079700164
186	0x3c97b767	0.01852007
187	0xbd47b6ba	-0.048758246
188	0x3c416af1	0.011805282
189	0x3d137d56	0.0360082
190	0xbc3ee26a	-0.011650661
191	0x3bd0db73	0.0063738166
192	0xba8c7f73	-0.0010719135
193	0xbd4b3b33	-0.049617004
194	0x3cb7a38c	0.022416852
195	0xbd61f683	-0.055166733
196	0x3d583ade	0.052790515
197	0x3da11749	0.078657694
198	0x3de8b706	0.11363034
199	0x3c509b89	0.012732395
200	0x3d2f33eb	0.042774122
201	0xbd410af8	-0.0471296
202	0x3d050863	0.0324787
203	0xbcb1de96	-0.021712583
204	0xbcfde509	-0.030993002
205	0xb9229472	-0.00015504824
206	0x3cc800c6	0.024414431
207	0x3cc30071	0.023803921
208	0x3d3c05fa	0.045904137
209	0x3d2d7e33	0.04235668
210	0x3da5ad1c	0.080896586
211	0xbc158b5c	-0.009127464
212	0x3e062136	0.13098606
213	0xbd2ae66b	-0.04172365
214	0x3d3e92f6	0.04652687
215	0xbc0f26f9	-0.008737319
216	0xbb2fcb63	-0.0026824109
217	0x3ba7ebc3	0.0051245405
218	0xbc9e5c07	-0.019330991
219	0xbb45bef8	-0.003017364
220	0x3d898cf4	0.06716338
221	0xbca79007	-0.02045442
222	0xbd7d5c4a	-0.06185559
223	0xbd34c6ea	-0.04413501
224	0x3d07d5d0	0.033162892
225	0x3d369a22	0.044580586
226	0x3cb4d4d7	0.022074146
227	0x3d63ef82	0.055648334
228	0x3d134dde	0.03596293
229	0xbd0bafd0	-0.034103215
230	0xbca83099	-0.020530986
231	0x3bc1152e	0.0058924174
232	0x3e5f47a3	0.21804671
233	0x3d1274c2	0.03575588
234	0xbc38ca27	-0.011278666
235	0x3da997a7	0.082808785
236	0x3d2d0046	0.04223659
237	0x3cda97c7	0.026683701
238	0xbba07148	-0.0048963167
239	0xbd6cf0a7	-0.05784669
240	0xbb8edd18	-0.0043598525
241	0xbd2455bf	-0.040120836
242	0x3d7259da	0.05916772
243	0x3c20ccd5	0.009814461
244	0xbceb78d2	-0.028744135
245	0xbd2ff368	-0.04295674
246	0xbd5e7341	-0.054309133
247	0xbc7d7d8d	-0.015471828
248	0x3d14f092	0.03636224
249	0x3d15f9e9	0.036615286
250	0xbd17fd00	-0.037106514
251	0xbb808722	-0.003922359
252	0xbd09af43	-0.03361441
253	0xbc32766d	-0.010892493
254	0xbc437c91	-0.011931554
255	0xbd4f390e	-0.05059152

fc1.bias f4 [256]
0	0x3d075c2f	0.033046898
1	0xbd0b4bc4	-0.034007803
2	0x3d917137	0.07101672
3	0xbe3189f9	-0.17337789
4	0xbc926a29	-0.017872887
5	0xbd110059	-0.035400722
6	0xbe087895	-0.13327248
7	0xbc080b81	-0.008303524
8	0x3d25e2d2	0.040499516
9	0xbe2d52df	-0.16926144
10	0x3e11e950	0.14249158
11	0x3dc9ed36	0.098596975
12	0x3e2fd0a1	0.1716943
13	0xbd992ccc	-0.074792475
14	0xbdfc685b	-0.12324592
15	0x3dd9af33	0.1062912
16	0x3e2788d8	0.16360795
17	0xbdcfb737	-0.10142367
18	0xbdd11c18	-0.102104366
19	0xbc53cba5	-0.012926971
20	0x3e179c5f	0.14805745
21	0xbcdc3229	-0.026879387
22	0xbe2ac03c	-0.16674894
23	0xbd921b14	-0.07134071
24	0xbdcbbe58	-0.099484146
25	0x3e061332	0.1309326
26	0xbe0277c2	-0.12740996
27	0x3e04ed81	0.12981226
28	0x3d853028	0.06503326
29	0xbc803b77	-0.015653355
30	0xbd332434	-0.043735698
31	0x3dc529c8	0.0962711
32	0xbdc9bdaf	-0.098506324
33	0xbd897386	-0.067114875
34	0x3e1d4094	0.15356666
35	0xbd89e1d2	-0.06732525
36	0x3c918b11	0.017766507
37	0x3e10ab77	0.14127909
38	0xbe0bcef0	-0.13653159
39	0x3ceb2229	0.028702812
40	0x3b9d603a	0.004802731
41	0xbdb82709	-0.0899182
42	0x3e0ff63f	0.14058779
43	0x3df5640b	0.11981972
44	0xbc3af373	-0.011410582
45	0xbc99109b	-0.018684676
46	0x3dde181c	0.10844442
47	0xbd6c05a1	-0.057622556
48	0x3dc9ea04	0.09859088
49	0xbdedc9f5	-0.11610786
50	0xbe1294c7	-0.14314567
51	0x3def88e1	0.116960295
52	0x3df341b8	0.11877769
53	0xbe0a60dc	-0.13513511
54	0xbd1c84b1	-0.038212482
55	0x3d977271	0.07394875
56	0x3dbea930	0.09309614
57	0x3dd48329	0.10376579
58	0x3df9f1d4	0.12204328
59	0xbda3376d	-0.07969556
60	0x3d182e48	0.037153512
61	0x3e1924b2	0.14955404
62	0xbe1283e1	-0.1430812
63	0x3de72771	0.1128682
64	0x3d345750	0.04402858
65	0x3bf8481a	0.0075769546
66	0x3e307032	0.17230299
67	0xbd93e43f	-0.07221269
68	0xbd4478c5	-0.047966737
69	0xbe04a801	-0.12954713
70	0x3e161252	0.14655426
71	0xbe024db4	-0.12724954
72	0x3e1f61fe	0.15564725
73	0xbe0312db	-0.12800162
74	0x3dcc4587	0.09974199
75	0xbdb20200	-0.08691788
76	0x3e1c513f	0.15265368
77	0xbdee88cb	-0.11647185
78	0xbde6bb61	-0.112662084
79	0xbd4dbbb6	-0.050227843
80	0xbe0f5758	-0.13998163
81	0x3e29525c	0.16535324
82	0x3d84708b	0.06466778
83	0xbdc1a2d2	-0.09454884
84	0xbe06b86d	-0.1315629
85	0xbd6bc7ad	-0.057563473
86	0x3cd572f9	0.0260558
87	0xbda09d71	-0.078425296
88	0x3dcf7f3d	0.10131691
89	0xbdaf2813	-0.085525654
90	0x3d549d82	0.051908024
91	0x3e016079	0.12634458
92	0xbdfcee9e	-0.123502
93	0xbe0b1e5e	-0.13585803
94	0xbe2a7bb4	-0.16648751
95	0x3d064fd0	0.03279096
96	0x3e0beb04	0.1366387
97	0xbde392e1	-0.11111999
98	0xbcc0349a	-0.023462582
99	0x3ddf6fde	0.10910009
100	0x3e0a61a0	0.13513803
101	0x3dc3349b	0.09531518
102	0x3d63a0e8	0.055573374
103	0x3cf74aa1	0.030186953
104	0x3c519200	0.012791157
105	0x3e1b9aac	0.15195721
106	0x3bd28eed	0.0064257295
107	0x3d8a8c69	0.06765062
108	0xbc503a63	-0.012709233
109	0x3e0d1c86	0.13780412
110	0xbe30c8c6	-0.17264089
111	0xbd62d60d	-0.055379916
112	0xbe2a80cc	-0.16650695
113	0x3d27bb82	0.040950306
114	0xbd233a50	-0.039850533
115	0xbe127af2	-0.14304712
116	0xbe0890e5	-0.13336523
117	0x3d4bfaa0	0.04979956
118	0x3e05de44	0.13073069
119	0x3e17c209	0.14820112
120	0x3df4b883	0.11949255
121	0xbe0fd50a	-0.14046112
122	0x3e14365c	0.14473861
123	0x3e29d694	0.16585761
124	0x3c09c795	0.0084094005
125	0xbe2b2a1f	-0.16715287
126	0xbe00efaf	-0.12591432
127	0xbe1ddef6	-0.15417084
128	0x3ce55195	0.027993003
129	0x3e12a2a3	0.14319853
130	0x3de4dc29	0.11174805
131	0xbdad8c86	-0.08474068
132	0xbd9b2eaf	-0.075772636
133	0x3d2977b0	0.04137391
134	0xbdbf6b20	-0.09346604
135	0xbc89857c	-0.016787283
136	0x3d4e0553	0.050298046
137	0xbd82ac29	-0.06380493
138	0x3d7f4437	0.062320914
139	0xbccaa487	-0.024736656
140	0x3e248813	0.16067533
141	0xbe1254e5	-0.14290197
142	0x3e165558	0.14680994
143	0x3df01b7a	0.11723991
144	0xbe1fa9be	-0.15592095
145	0x3d273568	0.040822417
146	0xbcb4c155	-0.022064844
147	0x3da7eec3	0.08199837
148	0x3e00db59	0.12583674
149	0xbdbf7554	-0.093485504
150	0xbdcac573	-0.09900942
151	0xbe01c9b5	-0.12674601
152	0x3e0090f4	0.12555295
153	0xbe1550a0	-0.14581537
154	0xbddddf8e	-0.10833655
155	0x3e208dfe	0.15679166
156	0x3db7ae78	0.08968824
157	0x3df4b0c8	0.11947781
158	0x3e19a17b	0.15003006
159	0xbe1b8263	-0.15186457
160	0xbd317cf1	-0.043332044
161	0xbc70007a	-0.014648551
162	0x3e24ce7b	0.16094391
163	0xbd499911	-0.04921824
164	0xbc405ed8	-0.0117413625
165	0x3dc9fbf6	0.09862511
166	0x3db9f651	0.09080184
167	0xbde8ba52	-0.11363663
168	0xbe1ad9fa	-0.15122214
169	0xbd86a52c	-0.06574473
170	0x3d63b537	0.05559274
171	0x3e29abfe	0.16569516
172	0x3da0fe6f	0.07861029
173	0x3dce0823	0.10060146
174	0x3d5b66a9	0.0535647
175	0xbd35ba97	-0.0443674
176	0xbcead80f	-0.028667478
177	0x3e15f8ef	0.14645742
178	0x3d1839d9	0.037164543
179	0x3d0eb183	0.034837257
180	0x3dd05aea	0.101735905
181	0x3e008cc4	0.12553698
182	0x3d4b7143	0.04966856
183	0xbc9017bf	-0.017589448
184	0xbd9dc02b	-0.07702669
185	0xbdd8d513	-0.10587516
186	0xbdb21cdd	-0.086969115
187	0x3e111acf	0.14170383
188	0x3e0df0b9	0.1386136
189	0xbdbc7a8f	-0.09203064
190	0x3e167916	0.14694628
191	0xbd383d89	-0.04498056
192	0xbd344c08	-0.04401782
193	0x3d618418	0.055057615
194	0xbe10e26e	-0.14148876
195	0xbdd2dc9d	-0.10295985
196	0xbccf5da8	-0.025313213
197	0xbd603276	-0.054735623
198	0x3db3e006	0.087829635
199	0xbd28c375	-0.041202027
200	0xbe17d00d	-0.14825459
201	0xbe1b403c	-0.15161222
202	0x3e2c1eac	0.16808575
203	0x3da0abb9	0.078452535
204	0xbe318008	-0.17333996
205	0xbe12d498	-0.1433891
206	0xbde198c3	-0.11015465
207	0x3e2169dd	0.1576304
208	0x3dc21213	0.09476104
209	0x3d68e7fc	0.056861863
210	0x3dc9ed5e	0.09859727
211	0x3cf202dc	0.02954238
212	0x3dfe1fc5	0.12408403
213	0xbe0f8232	-0.1401451
214	0x3e0bdfe7	0.1365963
215	0x3da2fe8c	0.07958707
216	0x3d6c9eed	0.05776875
217	0x3de42201	0.11139298
218	0xbd0b4489	-0.034000907
219	0xbda99927	-0.082811646
220	0xbd423b15	-0.047419626
221	0xbe05b122	-0.13055852
222	0x3adf158d	0.0017019972
223	0x3db75506	0.08951764
224	0x3d05930f	0.03261095
225	0xbbc8fc17	-0.006133567
226	0x3d86ee7f	0.06588458
227	0xbe2283aa	-0.15870538
228	0xbdea61c1	-0.11444426
229	0xbe1b867d	-0.15188022
230	0x3e3139b4	0.17307168
231	0xbe2202cd	-0.15821381
232	0x3da96ee4	0.08273104
233	0x3e008405	0.12550361
234	0xbd4adba4	-0.049525872
235	0xbce1013f	-0.027466414
236	0x3e126a08	0.1429826
237	0xbe11bef9	-0.14233007
238	0xbe31f351	-0.17377974
239	0xbcd0ac9b	-0.02547293
240	0xbcb6a99e	-0.022297677
241	0xbd920aca	-0.07130964
242	0x3c5f66d3	0.013635355
243	0x3dbdafcf	0.092620485
244	0x3dbedaca	0.093190745
245	0x3d4f588c	0.050621554
246	0x3dfbec14	0.12300888
247	0xbda624c5	-0.08112482
248	0x3c3dd04b	0.011585305
249	0x3d6ec10f	0.058289584
250	0x3d654299	0.055971716
251	0xbd7fab17	-0.062419023
252	0x3e10fe84	0.1415959
253	0xbe084320	-0.13306856
254	0xbda91d53	-0.08257546
255	0xbe2afdb0	-0.16698337

fc2.weight f4 [128, 256]
0	0x3e01dc21	0.12681629
1	0x3dd24183	0.102664016
2	0xbd60b01a	-0.054855444
3	0xbe029286	-0.12751207
4	0x3e4f4f6d	0.20245142
5	0x3cbd079a	0.023074914
6	0xbd7f501a	-0.06233225
7	0xbdc1f3b6	-0.09470312
8	0x3ec67915	0.38764253
9	0xbc6bc1c9	-0.014389464
10	0x3d48c03c	0.049011454
11	0x3d4d4289	0.05011228
12	0x3e311fc2	0.17297271
13	0x3dd9e1ca	0.10638769
14	0xbe384f6e	-0.1799905
15	0x3cfdffbe	0.031005736
16	0xbceebcca	-0.029142756
17	0xbae86319	-0.0017729729
18	0xba83a5ba	-0.0010043897
19	0x3e0953fc	0.13410944
20	0x3d51ed68	0.0512518
21	0xbd1da415	-0.03848656
22	0x3e6d8b9f	0.23197792
23	0x3ea68a89	0.3252757
24	0x3c7c6491	0.015404836
25	0xbe6ba46e	-0.23011944
26	0x3da6f6b7	0.08152526
27	0x3e75c427	0.24000607
28	0x3d3fea30	0.046854198
29	0xbdcf05cb	-0.10108527
30	0x3e42ded1	0.1903031
31	0x3dd5773f	0.10423135
32	0xbdb5cf31	-0.08877409
33	0x3ea074e9	0.31339195
34	0xbdd9e9b5	-0.10640279
35	0x3e125da5	0.14293535
36	0x3d3c4440	0.045963526
37	0x3c41a1a2	0.011818321
38	0xbdeda349	-0.1160341
39	0x3e36faea	0.17869154
40	0xbe3e65a6	-0.18593463
41	0xbd8004a3	-0.062508844
42	0xbd945c69	-0.07244188
43	0x3e31b33d	0.1735353
44	0xbcca00d2	-0.024658594
45	0xbd59bb2c	-0.053157017
46	0xbe0933ac	-0.13398618
47	0xbc6c4e27	-0.01442293
48	0x3df8c93c	0.121477574
49	0xbdc4ccdd	-0.09609387
50	0x3d973ffc	0.07385251
51	0xbd7c871e	-0.061652295
52	0x3e719bb9	0.2359456
53	0xbe4c308d	-0.19940396
54	0x3d9f45f2	0.07777013
55	0xbd33da37	-0.043909278
56	0x3e4cff6a	0.20019308
57	0xbd9f03c7	-0.07764392
58	0xbb83e91a	-0.0040255906
59	0x3e03ea3a	0.12882319
60	0xbdb401e2	-0.087894216
61	0xbbab5bb7	-0.005229439
62	0x3e8c831e	0.27443784
63	0xbdc2661a	-0.094921306
64	0x3d877a6f	0.06615149
65	0x3d365317	0.044512834
66	0xbdd14418	-0.10218066
67	0x3d0b6293	0.034029555
68	0xbd716c8b	-0.058941405
69	0x3df80230	0.12109792
70	0x3d813f28	0.06310874
71	0xbd21828f	-0.03943115
72	0x3d44794b	0.047967236
73	0x3dc3523d	0.0953717
74	0x3e05c861	0.1306472
75	0xbd48dcb0	-0.04903859
76	0xbe851cbc	-0.25998485
77	0xbde6acab	-0.112634026
78	0x3d29112d	0.041276146
79	0x3cba2b1a	0.02272563
80	0x3d948588	0.072520316
81	0x3d8b590e	0.06804095
82	0xbe34072f	-0.17580865
83	0x3cd08a5c	0.0254566
84	0xbdc55525	-0.09635381
85	0x3b084168	0.0020790938
86	0x3cb5bb10	0.022183925
87	0xbc9bc98b	-0.019017002
88	0xbd9f9f3d	-0.07794044
89	0x3d7269d6	0.059182964
90	0x3c91ca7c	0.017796747
91	0x3e3a4142	0.18188956
92	0x3bcb10a0	0.00619705
93	0xbdec0648	-0.115246356
94	0x3b6a3fac	0.0035743518
95	0x3d6409e0	0.05567348
96	0x3d917326	0.07102041
97	0xbcde6a9d	-0.027150447
98	0x3d0f4e32	0.034986682
99	0x3e8545df	0.2602987
100	0x3d84cd75	0.064845
101	0x3ae4e889	0.001746432
102	0xbd918037	-0.07104533
103	0x3dba62f3	0.09100904
104	0x3e5a3ad9	0.21311511
105	0x3d0c28f6	0.03421875
106	0x3dc0e44c	0.09418544
107	0xbd786256	-0.060640655
108	0x3dfee5c5	0.12446169
109	0xbe585a25	-0.21128137
110	0x3e1ce894	0.15323097
111	0xbe204636	-0.15651783
112	0x3c6453d0	0.013935998
113	0x3e63ad9e	0.22234198
114	0x3dba0b90	0.090842366
115	0xbe19b11a	-0.15008965
116	0xbda0285d	-0.07820199
117	0x3e0d7584	0.1381436
118	0xbdd4cc32	-0.1039051
119	0xbe4c25c1	-0.19936277
120	0x3d00170b	0.031271975
121	0x3e408ca9	0.18803658
122	0x3d5fd085	0.05464222
123	0x3c1f7f9a	0.009735012
124	0x3ac61331	0.0015111921
125	0x3cdee8a8	0.027210549
126	0xbd916c45	-0.07100729
127	0xbe0d79a2	-0.1381593
128	0xbe4c9827	-0.19979917
129	0x3e038664	0.12844235
130	0x3e12868f	0.14309143
131	0xbd2dce29	-0.042432938
132	0xbd965375	-0.07340137
133	0xbd2ebb2d	-0.042658973
134	0x3de0d419	0.109779544
135	0xbdc2aec2	-0.09505989
136	0xbc5b794f	-0.013395621
137	0x3c7a4b64	0.015276764
138	0x3cbb7376	0.022882205
139	0xbe342665	-0.17592771
140	0xbde17dc0	-0.11010313
141	0x3e8da4c6	0.27664775
142	0x3df05d3a	0.117365316
143	0x3d83bf61	0.06432987
144	0xbbe29416	-0.006914626
145	0x3e964cee	0.29355568
146	0x3de82464	0.11335066
147	0x3dc6cf30	0.09707487
148	0xbd705a1d	-0.05867969
149	0xbe1030ed	-0.14081164
150	0xbc4f19bb	-0.012640412
151	0x3d932275	0.071843065
152	0xbd1cc99a	-0.0382782
153	0x3cb75978	0.02238153
154	0x3cae6d6d	0.021292413
155	0x3d8797dc	0.06620762
156	0xbc912a77	-0.017720444
157	0xbda7bd3f	-0.08190393
158	0x3e0dc4d3	0.13844614
159	0x3e0b0297	0.13575207
160	0xbcaff796	-0.021480363
161	0xbd236480	-0.039890766
162	0x3e97566e	0.29558128
163	0x3e007021	0.12542774
164	0x3deddbb7	0.11614173
165	0x3d49324f	0.049120244
166	0xbd9ebd89	-0.07750995
167	0x3d943b87	0.072379164
168	0x3d93c913	0.07216086
169	0x3b98a715	0.0046585896
170	0xbd426827	-0.04746261
171	0x3e7e6098	0.24841535
172	0x3d581e5a	0.05276332
173	0x3deafbce	0.11473809
174	0xbe092ad6	-0.13395247
175	0xbdbb514b	-0.09146365
176	0xbca0be89	-0.019622104
177	0xbd5fe21f	-0.054659005
178	0x3c351187	0.011051542
179	0xbdb6406a	-0.08899005
180	0x3e96d8eb	0.2946237
181	0xbd4ba1ab	-0.049714725
182	0x3cb26913	0.021778619
183	0x3e261d95	0.16222222
184	0x3ded1792	0.11576761
185	0x3de22381	0.11041928
186	0xbe03b669	-0.12862553
187	0x3dbc9edf	0.0920999
188	0x3be7f3b3	0.0070786118
189	0x3da8ca04	0.082416564
190	0xbc9a1055	-0.018806616
191	0x3c9903f3	0.018678641
192	0xbda28c3c	-0.07936904
193	0x3da699d6	0.081348106
194	0x3e0c9946	0.13730344
195	0x3e57509d	0.21026845
196	0x3d898528	0.06714851
197	0x3d184ab9	0.037180636
198	0xbd9eefc7	-0.07760578
199	0x3e21ffa8	0.15820181
200	0x3d44c31b	0.04803763
201	0x3e56908e	0.2095358
202	0xbc261e98	-0.01013913
203	0x3dec5eee	0.11541544
204	0x3e8b3c38	0.2719438
205	0x3dd2b302	0.10288049
206	0xbe2fd493	-0.17170934
207	0x3e2220ed	0.15832873
208	0x3d6f2d66	0.058392905
209	0x3e147dfe	0.14501187
210	0xbb90cad1	-0.004418709
211	0xbdb2f09c	-0.08737299
212	0xbda671a0	-0.08127141
213	0xbba20d03	-0.004945399
214	0x3dcdb2db	0.100438796
215	0x3e89ff28	0.2695248
216	0x3d9c0608	0.07618338
217	0x3d69206c	0.056915686
218	0xbdc46bf6	-0.095909044
219	0x3e24a5fd	0.16078945
220	0xbe41c76d	-0.18923731
221	0xbe10b7d2	-0.14132622
222	0x3e5811be	0.21100518
223	0x3d308e51	0.043104474
224	0x3eaf627d	0.34254828
225	0xbd0ca371	-0.034335557
226	0x3d03531d	0.032061685
227	0x3e8120bf	0.25220296
228	0x3d8c2378	0.068427026
229	0x3cf747b8	0.030185565
230	0x3e07d158	0.13263452
231	0x3dd20bc7	0.102561526
232	0x3e3a1157	0.18170677
233	0x3bb8a3ea	0.0056347745
234	0x3e861aa9	0.26192215
235	0x3c82e393	0.015977656
236	0xbd293209	-0.041307483
237	0x3e2dff9f	0.16992043
238	0xbde23b81	-0.11046506
239	0x3bd9af27	0.0066431942
240	0x3cea6a00	0.028614998
241	0xbe116b6b	-0.14201133
242	0x3dddf3e5	0.10837535
243	0xbcdc4127	-0.026886536
244	0x3e31f6d4	0.17379314
245	0x3e5d90e1	0.21637298
246	0xbcc3f181	-0.023918869
247	0x3dc46f9a	0.09591599
248	0x3c1c2292	0.009529727
249	0x3dfef17c	0.12448403
250	0x3d23aef6	0.039961778
251	0x3c9ea453	0.019365465
252	0x3cee8126	0.029114317
253	0x3d418553	0.04724629
254	0xbdc16168	-0.09442407
255	0x3daa4891	0.08314622

fc2.bias f4 [128]
0	0x3c8ad2a6	0.016946148
1	0x3cdbdc2d	0.026838386
2	0x3dc52c39	0.096275754
3	0x3cdae570	0.026720732
4	0xba0590d7	-0.000509513
5	0x3dcbbf68	0.09948617
6	0x3caf594a	0.021404881
7	0xba5a3430	-0.00083238166
8	0x3dac2bc9	0.08406789
9	0x3d63a820	0.05558026
10	0x3d84c827	0.064834885
11	0x3e03afa2	0.12859967
12	0xbcb40bcd	-0.021978283
13	0xbcba35ec	-0.02273079
14	0x3d49b674	0.049246266
15	0x3d9043cf	0.070441835
16	0xbd1b5f40	-0.037932634
17	0x3de4ded6	0.11175315
18	0xbc980a8f	-0.018559722
19	0x3c8502fa	0.01623677
20	0xbcaa0879	-0.020755993
21	0x3d3c3853	0.045952152
22	0x3cbfaecc	0.02339878
23	0x3d1b64ee	0.03793805
24	0x3c9fbaa6	0.01949818
25	0x3dd82667	0.105542
26	0x3dcbbc02	0.09947969
27	0x3d1f7784	0.03893234
28	0x3cd4c3de	0.025972303
29	0x3d4c04c3	0.04980923
30	0x3db491fb	0.08816906
31	0x3d9303f9	0.07178492
32	0xbcd352c9	-0.025796311
33	0x3d884ddc	0.066554755
34	0x3e0556dd	0.13021417
35	0x3d69ab2a	0.057048
36	0xbd098d07	-0.03358176
37	0xbb9cac60	-0.004781291
38	0x3d78a99c	0.060708627
39	0x3d3d4611	0.0462094
40	0x3b69b7cb	0.0035662528
41	0xbd504e79	-0.050856087
42	0x3c81abb7	0.01582895
43	0x3d0141cb	0.031556886
44	0x3daa8f79	0.083281465
45	0x3df83e12	0.12121214
46	0x3d5b7ed3	0.053587746
47	0x3d8f61e3	0.07001092
48	0x3d8bf654	0.06834093
49	0xbc3268fe	-0.01088929
50	0x3d6911c3	0.056901705
51	0x3d74649c	0.05966626
52	0x3d19e88c	0.03757529
53	0xbbf16583	-0.0073668375
54	0x3d9eb135	0.07748643
55	0xbd823973	-0.06358614
56	0x3bcf4582	0.0063254246
57	0x3d2cbb37	0.04217073
58	0x3c96a4f8	0.01838921
59	0x3c31a616	0.010842821
60	0x3c4d6122	0.012535365
61	0x3d8ec7da	0.069717124
62	0x3d6c531e	0.057696454
63	0x3d8f5bf4	0.069999605
64	0x3d480e87	0.04884198
65	0x3d67f596	0.056630693
66	0x3dc18b2d	0.09450374
67	0x3d060695	0.03272112
68	0xbd6d072e	-0.057868175
69	0x3cbc0dcd	0.0229558
70	0x3dacf157	0.084444694
71	0x3cfc869f	0.030825911
72	0x3e36c397	0.17848049
73	0xbd20215a	-0.039094307
74	0xbc842b4d	-0.016133929
75	0x3d287e1d	0.041135896
76	0x3cc9fa36	0.024655443
77	0x3d58d1b9	0.052934382
78	0x3dc7abd8	0.097495735
79	0x3d4366ca	0.04770545
80	0x3d9b8bf4	0.07595053
81	0x3db2822c	0.087162346
82	0xbd23cd51	-0.039990727
83	0xbd1a578c	-0.037681147
84	0x3d3f6df6	0.046735726
85	0xbc395c1a	-0.011313463
86	0xbd121581	-0.03566504
87	0x3d0b0710	0.033942282
88	0x3d4c00c1	0.049805406
89	0x3e139394	0.14411765
90	0x3ce38519	0.027773427
91	0x3ddb9668	0.10722047
92	0x3d061d4d	0.032742787
93	0x3c4174aa	0.0118076
94	0x3d1c3975	0.038140733
95	0xbd0f4ca3	-0.034985196
96	0x3d378f8a	0.044814624
97	0x3ce386c3	0.02777422
98	0x3d7568d3	0.05991442
99	0xbcf22526	-0.02955873
100	0xbbf8d63a	-0.007593897
101	0xbca0c977	-0.019627316
102	0x3da5725b	0.08078452
103	0x3c9ab26a	0.018883903
104	0x3d902817	0.070388965
105	0xbc434d23	-0.011920246
106	0x3cad21c9	0.021134274
107	0x3dbce825	0.092239656
108	0x3b88bb56	0.004172723
109	0x3d9b0bdf	0.075706236
110	0x3a4a5ebe	0.0007719806
111	0x3cb0f158	0.021599457
112	0x3dbd3ff7	0.09240716
113	0xbd00971d	-0.031394113
114	0x3d6d5d1a	0.057950117
115	0xbd3ce5ac	-0.04611747
116	0x3d783e41	0.060606245
117	0xbbd682a0	-0.0065463334
118	0x3d6c01e4	0.05761899
119	0x3d2832de	0.041064136
120	0x3cb5850b	0.022158166
121	0x3dd2160a	0.1025811
122	0xbc33330f	-0.010937466
123	0x3d1ccb6d	0.03827994
124	0x3d080ab3	0.03321333
125	0x3ab81056	0.0014042954
126	0x3d22906d	0.039688516
127	0x389e8f57	7.560726e-05
